best_model_3x3.pth (torch, 242613 bytes, 22 tensors)

conv_input.weight f4 [32, 6, 3, 3]
00000000: fbc2 6a3c f1d0 f9bd 02fd 3c3d fdbc 333d
00000010: 5299 36bd 6356 c53d 7f95 85bd f427 7cbd
00000020: 1226 c1bd 88af b83d d7ed 223e 5e42 aabd
00000030: ea54 a4bd 0662 a7bd 0e95 b03d 4a66 343d
00000040: 5360 873d 73ab 12be eb42 8dbd fe80 6abd
00000050: dfbd 0c3e 29f8 f2b9 68c1 ba3c 159e e03d
00000060: 9d6b acbd 21a1 863d f7b4 b23d e168 693c
00000070: af9a 343e d747 b3bd 11f2 913b 6484 b3bd
00000080: a9c4 223d 0489 3c3d c966 10bd 9938 87bd
00000090: 7a17 4bbd c780 6f3c 2ec2 d13d a445 fc3d
000000a0: aee1 c73d 38fd 0f3e 8d02 cbbd c319 c2bb
000000b0: 76dc 1dbd e2ba 9cbc a2a1 1f3e badd 69bc
000000c0: 4ba8 f23d 9a79 c53d 538b 3cbc 406d 9f3d
000000d0: 7e5e 953d c7ba 95bd 1256 a73d ef07 01bc
000000e0: 35e1 e13d 7706 853d 2c1b 953d 58d5 66bc
000000f0: 353f f5bd 3904 54be 4003 a83d 403a 0cbd
00000100: 4917 cfbd ad36 c63d a6b4 ffbc 9ae5 f63b
00000110: 174f ad3b 150e 2a3e 11e6 2dbd 98f9 e6bc
00000120: 9fcc 313e f1d2 e13d c97e 363e 336d ce3d
00000130: a8da 0d3e ae06 b6bd 0019 013e 75ac c63d
00000140: 2291 b23d 5e9e 58bd a232 043e 99d4 c2bd
00000150: 3cf0 05bd de12 18be b4c2 54bd 7a57 743d
00000160: eef2 163d 1911 16be 890d 82bc b36c 51bd
00000170: c611 72bc ca3f a6bd 5416 59be fb5a 86bd
00000180: 83f8 84bc 83af 4a3c 87ed 61bc 1fa3 9dbd
00000190: 752e 003d 858f 8ebd 7179 113e 3163 f03d
000001a0: a20d b73d af66 d53d 344e 2ebc f91f e83d
000001b0: 3cd5 b63d 3dd0 453d 0a2d 33bd 816f 6dbd
000001c0: d536 0f3e 9079 1a3d 9f25 123e 0172 033e
000001d0: 2344 df3d 2e39 02be 8cf6 ab3c def6 773c
000001e0: aea4 53bd 01cd aa3c 6abb cc3d 562c 81bd
000001f0: f104 b93d cebc d0bc c591 113d 18d8 0bbd
00000200: 1d20 8bbd 2de3 fc3d f6d1 dd3b 48d8 033e
00000210: 6f48 9b3d 17ff 31bd 7993 bb3d 7fce 6abd
00000220: e268 123e 8a68 91bd 5ad4 10be 0798 bbbd
00000230: 0b71 81bd 4215 963d b4bb 883d 2c87 b1bc
00000240: a972 acbd d66c 13bd e315 b4bd 3f4a 463d
00000250: ed19 70bd 68e5 e53d abf8 1a3e 187b 1a3e
00000260: d5d8 ccbc d197 b43d c930 30be 0b27 5a3d
00000270: 0fc8 4bbd 30ac 5c3b ed82 ad3c 6247 b8bd
00000280: 8914 b7bd 9b69 cf3d 0405 55bd eb39 97bd
00000290: 9408 61bd de42 c33d be33 203e 6e58 dbbd
000002a0: f8c5 d7bd 20ee c2bd fdd9 1cbd 3e82 b53d
000002b0: eb88 ae3c c900 ad3d 3cdf 113e e416 6d3d
000002c0: 721a 0a3e 7d7c 73bd 549b 33bd c3d8 bfbd
000002d0: 15e0 ec3d 8b37 11be 7150 383d 19ce ebbd
000002e0: 161a b2bc 0443 c5bd 36ec f1bd 790e 18bd
000002f0: 35c8 7d3d 7b4a a9bd 1b19 f53c 57f8 64bc
00000300: 6b9c e3bd 0676 3a3d 871d a2bd d34f 393d
00000310: 25f0 01bc fb72 23be f826 143d 7771 8f3c
00000320: 9df2 093e 62db 113e 833a 9c3d 5830 183d
00000330: d466 ef3c 84d9 75bd ced8 d0bd f1a8 e8bd
00000340: 728e e43d 09a8 2a3b ee1a f13c 8c2b afbc
00000350: 3c9c d03d 49b4 be3d eb93 ebbd 8e9c f03b
00000360: b9f9 a73d 482c 353e 3950 c8bd 3a1d dc3d
00000370: 7b46 153e 9985 d8bd 5ead e93c 6130 b93c
00000380: 674d 31bc 6d2c 1a3e 1022 93bc fd6f 5b3d
00000390: 8b94 8d3d a9d8 aabd 2c6e c03d 322f a3bd
000003a0: 9c4b 323e db62 103c b0f2 48bd 4462 89bb
000003b0: d4cd 373e 71ee 843d 8cc0 8cbd 6a7e 163d
000003c0: 7a34 0bbd 93b3 d1bd 3580 6dbc 0f18 45bd
000003d0: 84ed f73d f1c9 4b3e 5154 4abd 6d94 cfbd
000003e0: d5db cc3d cf25 9fbd ad51 b23c c377 f3b9
000003f0: b76a 213e 30a1 cebd dd1a 033e 7db6 0bba
0.0143287135 -0.121980555 0.046139725 0.043881405 -0.04457981 0.096356176 -0.06522655 -0.06156154
-0.094310895 0.09017855 0.15911041 -0.0831344 -0.080240086 -0.08172993 0.0862218 0.044042863
0.06610169 -0.14323215 -0.06897529 -0.057251923 0.13744305 -0.0004634273 0.022797301 0.10967652
-0.08418963 0.06573702 0.087259226 0.0142461965 0.17637132 -0.08753937 0.0044539054 -0.08765486
0.03973833 0.046029106 -0.035254274 -0.06602592 -0.049582936 0.014618105 0.10242115 0.123179704
0.09759842 0.14061439 -0.09912596 -0.005923481 -0.038540326 -0.019132081 0.15589002 -0.014274055
0.118485056 0.09642334 -0.011507827 0.0778451 0.072934136 -0.073110156 0.081707135 -0.007875427
0.11029283 0.06495374 0.07280573 -0.014088951 -0.119749464 -0.20704736 0.08203745 -0.03423524
-0.10111863 0.09678397 -0.03121407 0.007534695 0.0052889693 0.16606934 -0.042455737 -0.028195187
0.17363213 0.11026562 0.17821802 0.10079422 0.13852942 -0.08887993 0.12607193 0.09700862
0.08719088 -0.052885406 0.1290994 -0.09513206 -0.03269981 -0.14850947 -0.051943496 0.059653737
0.03685277 -0.1465496 -0.015875595 -0.051129054 -0.014774745 -0.081176355 -0.21199924 -0.06560322
-0.01623178 0.012370947 -0.013789541 -0.076971285 0.031294305 -0.06960968 0.14206482 0.11737669
0.08938147 0.10419976 -0.010638762 0.11334223 0.0892739 0.048294295 -0.043744124 -0.057967667
0.1398576 0.037713587 0.14272164 0.12836458 0.10901668 -0.12717125 0.020991586 0.015134541
-0.051670723 0.020849707 0.09996684 -0.063072845 0.090341456 -0.025480654 0.035539407 -0.03414163
-0.067932345 0.12348018 0.006769414 0.12875473 0.07582175 -0.043456163 0.091589876 -0.057325836
0.14297822 -0.07100017 -0.14143506 -0.09159856 -0.06320389 0.07328273 0.066764265 -0.0216709
-0.08420307 -0.035992466 -0.08793237 0.04841065 -0.058618475 0.112253964 0.15133922 0.15086019
-0.025005737 0.08818019 -0.1720611 0.05325989 -0.049751338 0.0033671968 0.021180594 -0.0899799
-0.08939464 0.101275645 -0.052006736 -0.07384094 -0.05493982 0.09534238 0.15644738 -0.10710226
-0.105358064 -0.09518075 -0.038293827 0.08862732 0.021305522 0.084474154 0.14245313 0.05788316
0.1348665 -0.059444893 -0.043849304 -0.09367516 0.11566178 -0.14181344 0.04499859 -0.115139194
-0.021740954 -0.09631923 -0.11812632 -0.037123177 0.06195851 -0.08266159 0.029919198 -0.013975224
-0.11113819 0.045522712 -0.07915788 0.045242142 -0.00793079 -0.1596183 0.036169976 0.017510159
0.13471456 0.14243844 0.07628348 0.03715548 0.029223837 -0.060021892 -0.10197602 -0.11360348
0.11159982 0.0026040098 0.029431786 -0.02138307 0.10186049 0.093117304 -0.115028225 0.0073428815
0.08201928 0.17692673 -0.09780926 0.10747762 0.14577667 -0.10572357 0.02852505 0.022606077
-0.010821677 0.1505601 -0.017960578 0.053573597 0.06913098 -0.08342106 0.093960136 -0.07967986
0.17411655 0.0088126315 -0.04905957 -0.0041926224 0.17949611 0.064907916 -0.06872663 0.03674165
-0.033985592 -0.10239329 -0.014495899 -0.048118647 0.121058494 0.19901253 -0.049396817 -0.10135732
0.10002867 -0.07770883 0.021767462 -0.000464378 0.15763365 -0.10089338 0.12803216 -0.0005329622

conv_input.bias f4 [32]
00000000: c5ac 1abd dbe3 833c d3ae e1bd 6c95 63bd
00000010: 082b e73c c5cd 823d b83b c53d d080 8abd
00000020: aa0f ccbc b27f e73d c73e ddbd eeea 12be
00000030: 024b 8fbc 2109 debc a0ca be3c 353f 5dbd
00000040: 494f 303c fcd2 dbbd de7f 38bd 9fb9 60bd
00000050: 9a7c 31bd 04f4 ca3d f310 363b 11c6 de3d
00000060: ff5b acbb b7c0 a8bc 37f4 90bc 6770 1b3d
00000070: f52f 6bbd 25b4 8c3c 4d20 abbd a176 ecbd
-0.037762422 0.01609986 -0.11019673 -0.05556242 0.028218761 0.06386904 0.09630531 -0.0676285
-0.024909813 0.11303653 -0.108029895 -0.14347431 -0.017491821 -0.027103962 0.023289979 -0.054015357
0.010761091 -0.107336015 -0.04504382 -0.054864522 -0.04333172 0.099098235 0.0027781099 0.10877622
-0.00525999 -0.020599706 -0.017694576 0.037948992 -0.057418782 0.017175743 -0.0835577 -0.11546064

res1.conv1.weight f4 [32, 32, 3, 3]
00000000: 375d dbbb 2971 54bc 83c9 bcbc be9f cf3b
00000010: 17a9 bcbc ebe0 33bd b879 ad3d 97ac bbbd
00000020: 8ec3 9fbd 5443 aabd 22e7 94bd 938b b6bb
00000030: dbd0 c3bc 446d 69bd 6351 1dbd 3b32 1abc
00000040: 9906 eabc 02d8 bebb b5a5 943b 1359 143d
00000050: 3e5f 6c3c f50d 1e3c ed64 29bd b943 5e3d
00000060: 45ad 71bc fdcf 9cbd da66 df3b 5f34 15bd
00000070: d8e6 c139 89bf 60bc c9a5 9b3c e284 c33a
00000080: 1189 0f3c 0f83 b93c e956 9fbc 8d3a 843d
00000090: c56e 43bd aa15 a03c e5d4 c43b f8e9 ffbc
000000a0: ce18 2d3d b3fe 27bb a961 a03d 901e 11bd
000000b0: dec6 d23c 2ebb 8dbd e82f 81b9 826c 48bc
000000c0: cec1 51bc 6b0b 883d 91b7 de3b 9cd1 ffbc
000000d0: 8b93 d83d 2af2 013d 14af 083d 5b73 6f3d
000000e0: 23a0 4f3d 555d f93d f821 c93d d145 85bd
000000f0: 5da8 4a3d 9d14 b53c 2ebd b8bc 373e b5bd
00000100: e4e9 a43d 952c 873b 659a 2ebc 0807 84bb
00000110: 2079 54bc c44e 273c 0918 40bb 93e3 febc
00000120: bf41 c73c 96aa 84bc 7703 5e3d df28 603d
00000130: 60cf 703d 5f36 d03c e78a cb3d beba a63d
00000140: 74f8 9c3c cd95 3bbc 2507 aebc 2074 b53b
00000150: f04e c8bd 8d81 e4bc c50a 133c 7037 903c
00000160: c0f6 a9bc 0ad4 83bc 1c2c 34bc b6dc 913d
00000170: 9581 b1bc 8edd 683d ed7c 3bbd 84b6 6dbd
00000180: 7bab 023d 0046 c93d 8c0f 0e3d a8ac 97bd
00000190: a1d6 433d b6c6 88bd 6bfa c9bd cb85 c4bc
000001a0: 25ab 7e3d c02c 8ebd 0b00 b2bd c0dd 593d
000001b0: 9dca 233d f3cb ec3b 5562 c3ba 9c7e ce3c
000001c0: 5ce0 80bd f724 453d 4a4c 973c 2a5b c03c
000001d0: f2ef a6bd 3d47 173c 7f14 6a3d e6cd d03c
000001e0: 3223 8b3d 215a 67bd 5d8b 2ebc 2c30 493d
000001f0: f32c 173e 5e42 15bc 9a4d 93bc 0135 1d3d
00000200: 07f8 133c db7d 643d f9a1 d1ba 79aa a8bc
00000210: 4d38 033d 7c33 a43d e0a0 cc3c 6491 103d
00000220: 624a 3bbd 8e67 dbbb 4f35 a53d 4d12 3abd
00000230: 1231 4dbc 69ed 1ebc 9a87 3dbd 102b c8bc
00000240: a924 dcbc eae6 b63b 53e6 823c c50d 083d
00000250: 9b0d 073c 0cca de3b 8d62 b53c 1540 e6bc
00000260: 22c1 ddbc 26dd c03c 8ae1 dfbd 25a2 ee3c
00000270: e073 c33c 2051 abbd 37bd a7bd b1c3 223b
00000280: 2706 c6bd 1735 10bd 3041 253c fef2 6fba
00000290: a2d4 55bd eea9 453d f39e f23d 2c2d a73c
000002a0: e9a9 26bd 34cb 113c 7d75 1ebc 6203 f03a
000002b0: 878c 67bd 3f23 18bc 2bfe a83d efb7 64bd
000002c0: 10b8 9b3d 9b8a 7dbd 50f1 00bc 6099 c23d
000002d0: e93e 82bc 6477 77bc 167a c4bc fbd4 50bc
000002e0: 2077 07bd 73ff 52bc 88ea b7bc ea5d 5bbd
000002f0: e44b 913d 6dcc 8ebc 72f3 8b3d 5706 c0bc
00000300: ae46 0abd d6d3 a1bd 0f76 adbb b22d 013d
00000310: f70b d0ba 1bab c7ba 5e75 5bbc 9ee0 8abd
00000320: 59f0 c6bc ba0b eb3c 04ba 09bd a828 803d
00000330: 9827 4cbd 7c6a a4bc 1b98 073d 94b5 9f3d
00000340: 02e6 c1bd 4f75 413c 2b36 133d c8b1 403d
00000350: 1eea 3bbd 23ae 803c 9057 92bc 06c3 573c
00000360: 6cb6 673d 7e90 7bbc a443 31bd f23e 77bd
00000370: ff06 b0bb 0cca 90bd d721 65bd 6cb7 edbc
00000380: 5d0b 76bd 9340 cf3a f80d 94bc 896f 14bb
00000390: 6abf da3c 5524 e6bc 0d84 f73a 05a0 57bd
000003a0: cee3 82bd f5c5 46bb ed1b 0abe e4ae 813d
000003b0: 472b 8d3d 9a55 263d b16d 03bc be53 173d
000003c0: 8402 5dbc 4798 14bd cfc0 e8bc df3a 1d3d
000003d0: 3355 b03d 54b1 123d a1f5 8d3d 16b3 913d
000003e0: 676a e7ba 6019 533d e3ea 49bd 51db e3bc
000003f0: 55a6 81bd b3bc 23bd b6b0 5cba 2c1f 463c
-0.0066944617 -0.012966433 -0.023045307 0.0063361814 -0.023029847 -0.04391567 0.08470482 -0.09163778
-0.07800971 -0.08313623 -0.072706476 -0.0055708378 -0.023903301 -0.05698897 -0.038407695 -0.00941139
-0.0285676 -0.00582409 0.0045363554 0.03621776 0.014427004 0.009646882 -0.041356016 0.054263804
-0.014750783 -0.07656858 0.006817681 -0.036426898 0.0003698382 -0.013717541 0.018999951 0.0014916922
0.0087607065 0.022645501 -0.019450622 0.0645648 -0.04771306 0.01954158 0.0060068243 -0.031239495
0.042259984 -0.002563399 0.07831127 -0.035429537 0.025729593 -0.06920467 -0.0002464049 -0.0122329015
-0.012802554 0.06642803 0.006796785 -0.03122788 0.105750166 0.031725086 0.033370093 0.05845962
0.050689828 0.12176005 0.09820932 -0.06507457 0.04947697 0.022104556 -0.022551145 -0.08849757
0.080524236 0.0041251876 -0.010656928 -0.0040291585 -0.012968332 0.01021165 -0.00293112 -0.031114375
0.024323342 -0.016194623 0.054202523 0.054726478 0.05879152 0.025416551 0.09938603 0.08141087
0.01916144 -0.0114492895 -0.021243641 0.005537525 -0.09780681 -0.027893806 0.008974736 0.01760456
-0.020747542 -0.016092319 -0.010996845 0.071221754 -0.021668235 0.056851916 -0.045773435 -0.05803539
0.031901818 0.098278046 0.034682795 -0.074059784 0.047812108 -0.06678526 -0.098622166 -0.023989579
0.062174935 -0.06942129 -0.086914144 0.053189993 0.03998815 0.007226461 -0.0014906625 0.025206856
-0.06292793 0.048130956 0.018468995 0.02348097 -0.08151235 0.009233293 0.057148453 0.025488805
0.06793822 -0.056482438 -0.010653344 0.049118206 0.1476324 -0.009110061 -0.01798134 0.038380627
0.009031302 0.055784088 -0.0015993706 -0.0205891 0.032036114 0.08017632 0.024979055 0.035294905
-0.045725234 -0.0066956943 0.080668084 -0.04542761 -0.012523906 -0.009700158 -0.046271898 -0.024434596
-0.02687295 0.0055817263 0.015978968 0.033216257 0.00824299 0.006798988 0.02214172 -0.028106729
-0.027069632 0.023542952 -0.1093169 0.02913005 0.023858964 -0.08365083 -0.08190387 0.002483588
-0.09669142 -0.03520688 0.010086343 -0.0009153335 -0.052204736 0.04825776 0.118467234 0.020407282
-0.040689383 0.008898545 -0.009671566 0.0018311555 -0.0565305 -0.009285747 0.08251604 -0.055839475
0.076034665 -0.061899763 -0.007870033 0.0950191 -0.015899139 -0.015104149 -0.023983996 -0.012746091
-0.03307259 -0.012878287 -0.0224507 -0.05355636 0.07094553 -0.017431462 0.06833543 -0.023440523
-0.03375881 -0.079017326 -0.0052936147 0.03153772 -0.0015872706 -0.0015233489 -0.013394682 -0.067811236
-0.024284529 0.028692115 -0.033624664 0.062577546 -0.049842447 -0.020070307 0.033104043 0.07798305
-0.09467699 0.011807754 0.03594033 0.047044545 -0.04587757 0.015708035 -0.017864019 0.013169056
0.056570455 -0.015354274 -0.043277398 -0.060362764 -0.0053719277 -0.070697874 -0.055940475 -0.029018126
-0.06006943 0.0015812091 -0.018073067 -0.0022649488 0.026702601 -0.028093496 0.0018883959 -0.05264284
-0.063911065 -0.0030330394 -0.13487215 0.06332186 0.0689302 0.04060898 -0.008021758 0.036945097
-0.013489369 -0.036278035 -0.02841225 0.038386222 0.086100005 0.035813645 0.069316156 0.07114236
-0.0017655612 0.05153787 -0.04929627 -0.02781454 -0.063305534 -0.03997488 -0.0008418666 0.012092393

res1.conv1.bias f4 [32]
00000000: a511 e2bc 9838 62bd 8b87 afbc bf33 dd3c
00000010: b417 fbbc fcb1 48bc aa8e bc3b e768 babc
00000020: 59cf 3f3c 5304 153c 2147 19bc eb33 1ebd
00000030: f42c 84bd 8cc3 c7bc c530 173d 59a6 723c
00000040: e9cd 473c e62c 43bd ff11 953d 1c4d e7bc
00000050: 9f38 49bd 55fe 2fbd 8fb7 d63c ff40 05bd
00000060: 6100 8e3b 7b7e 78bd 7e38 023d 885c 48bd
00000070: ee19 963c 84cd 88bb 6e29 c5bc 8e0c d2bb
-0.027596304 -0.055229753 -0.021426937 0.027002214 -0.030650951 -0.012249466 0.0057543116 -0.0227551
0.01170715 0.009095269 -0.009355337 -0.03862373 -0.06453887 -0.024385236 0.036911745 0.014810168
0.012195089 -0.04765024 0.07278823 -0.02823501 -0.049126264 -0.04296716 0.026210574 -0.03253269
0.0043335413 -0.060667496 0.031792156 -0.04891637 0.018322911 -0.00417489 -0.024067607 -0.006410188

res1.conv2.weight f4 [32, 32, 3, 3]
00000000: b637 5f3c d3c4 0dbd d682 87bc 357a 473d
00000010: 15ee 9d3d 5b0b ce3d 4fc0 683d ace5 d1bc
00000020: 3201 d43b 8a87 b03c 3660 3c3d ebce 22bc
00000030: 76c5 423c db0a 883d 858f f03c 6e5d 5a3c
00000040: 7d38 20bc 92aa 05bd 4db2 d5bb a19d 213d
00000050: 65be afbd c70f f63b 5983 b4bd 937a 6f3d
00000060: fca1 413e 4837 ecbd f5c9 a43d c057 0dbd
00000070: a7d0 51bc 7591 8abd 2cb8 0e3d cb3e 753d
00000080: 8867 b1bc 9f63 903b d8c6 1c3c d0cc 1bbd
00000090: b4a3 b03c 034e 893d b4d1 bebb 6d92 4abd
000000a0: 5b6b 9a3c 9003 d1bb 8296 4a3b 6f1f 433d
000000b0: 2701 473c bd24 78bd ccb7 c63d aa31 5fbd
000000c0: 39af 0dbd 7e36 c13d a7e2 433d 5e8c abbc
000000d0: 0d61 14bd fc02 d23c ec70 d7bc a8ef 203c
000000e0: e24f 27bd 187a 06be 8caa 833c 4241 c43d
000000f0: 322d ec3c dd24 ebbc 3ab6 443d 3e7c 933a
00000100: efb2 b13c 86cd c13d a448 26bd aa88 ca3d
00000110: 077d 97bc 365d 21bd 90f7 873c 7429 2bbd
00000120: f0c5 073d 10fd 4cbc 6009 81bd 0b71 943c
00000130: e83b f7bc e569 113d 8c66 c13c a178 5c3d
00000140: 3266 5a3d 4535 74bd 0131 5c3c 7266 2dbd
00000150: 027e 083d c6a9 8ebd 6cc1 7bbd dc76 8f3d
00000160: fb18 203d 9681 d23c 8d3b 6fbc 5efc 933c
00000170: cd46 c9bc 4554 3b3c 0696 773c a9ea 01bd
00000180: 3d59 213d 7ccc e3bc a6be ddbb c49d ae3b
00000190: f00a e6bc 7cd4 e63c 33cc f33c 5006 463d
000001a0: fc02 44bc 749c 13bc e36a 873c 635f a2bc
000001b0: c9e3 8e3d 767e 873d 280d 213d f035 903d
000001c0: ebfc 79bd 69f9 38bd 2f1f 41bc b4d6 de3d
000001d0: 5844 0ebd f431 2bbc 0bdb e63c f266 89bb
000001e0: 0034 8c3d c0fc 22bd 50a5 9a3c bd77 a0bc
000001f0: 0f52 77bb e66e 3b3c 4db0 4eb9 0993 2dbc
00000200: 1c23 10bc 30a4 dcbd 3acf ac3c a0af d8bc
00000210: c39d ab3d d6b3 09bd 1343 713b 1246 05bd
00000220: ad49 8f3c 86a4 e83c 9094 9f3c 2ecc 25bd
00000230: 7c94 29bd 0870 aa3d 39bb 4b3c e12b 4f3d
00000240: 3d79 003d 279d 383d b684 9abb 7170 003b
00000250: 6ad1 d73d e542 f63c a615 913d 355e 87ba
00000260: 9514 94bd 6238 b63c 13cd f03c 582f c63c
00000270: 0cc0 f43c db96 97bc 6969 143d 9948 613d
00000280: e1e5 eb3c c5a4 fc3c 9e66 5f3d 3976 bbbc
00000290: 3d95 60bc 67f7 b9bc 8479 b6bc ab14 d6bc
000002a0: 241c 673c 2a0c 4dbd a8aa 893d 7d75 673d
000002b0: acf5 16bd 0e40 55bc 71c1 19bc 283f 70bd
000002c0: 45fe 62bd 62cc 8bbc 8bc0 8c3d 1238 193d
000002d0: 85ba d8bc 6482 64bb 8e9e 0f3d de0d 1f3d
000002e0: 5126 bdbc f9f1 8b3d e3db dc3c e8cf 1bbd
000002f0: 4a91 83bc 53a3 213c e29d d43c 1efb 9bbc
00000300: daa1 2f3d 35c2 353d e3eb 363c 4886 f93c
00000310: 487e 98bd cd88 ac3a 6f7c cb3c a76c 9ebc
00000320: bae2 e5bc 46b5 b73d b230 523c 08e0 d1bc
00000330: 83f1 553d a685 d3bd 6f1b 243d da81 a73c
00000340: bb3c 99bd 989b 27bc d34e e3bc 6990 b33d
00000350: 54d3 a4bb 6b5d 3cbc 5f24 013d 14f4 893d
00000360: 0d51 f4bc 96fd d6bc 5cad 22bd dff9 d73c
00000370: 834c 83bd c111 e1bc 9d9b 493c c9b9 4dbd
00000380: eedd 133c c07d d13d c6fc c7bc a925 9a3a
00000390: b105 cbbd 1c0b bdbb 1a2f b5bb 9021 463c
000003a0: 5b3a c2bc 488d bbbc a52d 763c 6848 3d3c
000003b0: 7ef5 283d 0f61 9fbc d50f 963d 7cc5 69bd
000003c0: c93d 15bc 3eac 2c3c 72ac d0bc f6da 39bc
000003d0: 2973 bbbc 55d3 bdbc 5630 1a3d f082 993c
000003e0: 070c 1e3c 21e2 3f3b ccf6 ee3c 9f33 f6bc
000003f0: 74a1 7dbc ae29 d03c ed1d 82bc 869a 453d
0.013624122 -0.034611534 -0.01654188 0.04870053 0.07711426 0.1006076 0.056824025 -0.025622211
0.006469869 0.021549005 0.04599019 -0.009937028 0.011887899 0.066426955 0.02936531 0.013327939
-0.009779093 -0.03263337 -0.0065214993 0.039456967 -0.08581237 0.007509205 -0.08814115 0.058466505
0.18909448 -0.115339816 0.08046333 -0.034507513 -0.012806094 -0.06766025 0.03484361 0.059874337
-0.021655813 0.004406407 0.009568892 -0.03803712 0.021562435 0.06704333 -0.0058233384 -0.04945605
0.01885002 -0.0063785985 0.0030912464 0.0476374 0.012146271 -0.06058191 0.09703025 -0.054490723
-0.034590933 0.09434222 0.047823574 -0.020940956 -0.036225367 0.025636189 -0.026298963 0.0098227635
-0.040847667 -0.13132513 0.016072534 0.095827594 0.028830145 -0.028704101 0.048025347 0.0011252237
0.021691767 0.094630286 -0.04059662 0.09889348 -0.018492235 -0.039395534 0.01659754 -0.04178758
0.033147752 -0.012511507 -0.06300616 0.01812031 -0.030179933 0.03550138 0.023608468 0.05382598
0.053320117 -0.059621114 0.013439418 -0.042334028 0.033323295 -0.069659755 -0.06146376 0.070050925
0.039086323 0.025696557 -0.0146016 0.018064674 -0.024569893 0.011433666 0.015111452 -0.03171793
0.039391745 -0.027807467 -0.006767112 0.0053288657 -0.028081387 0.028177492 0.029760456 0.048345864
-0.011963602 -0.009009469 0.01653046 -0.019820875 0.0697704 0.066159174 0.039319187 0.07041538
-0.061032217 -0.04515973 -0.01178722 0.10880795 -0.034733146 -0.0104489215 0.02818062 -0.0041931802
0.06845856 -0.039791822 0.018877655 -0.019588346 -0.003773812 0.0114400145 -0.00019711368 -0.010594138
-0.008797433 -0.10773504 0.021094907 -0.026450932 0.083797 -0.03361877 0.003681366 -0.032537527
0.017491186 0.028398763 0.01948002 -0.040477924 -0.04140137 0.083221495 0.012434774 0.050578956
0.03136562 0.045071747 -0.0047155274 0.001959827 0.105379894 0.030061195 0.07084207 -0.0010327759
-0.07230488 0.022243682 0.029394662 0.024192497 0.029876731 -0.01850455 0.03623334 0.055000875
0.028796138 0.030840287 0.054541223 -0.022883521 -0.013707456 -0.022700978 -0.02227474 -0.026132902
0.01410583 -0.05006043 0.06722003 0.05650853 -0.036855385 -0.01301576 -0.009384499 -0.05865398
-0.05541827 -0.01706523 0.06872662 0.03740699 -0.026456127 -0.0034867758 0.03506332 0.038831584
-0.02308956 0.06833262 0.026960319 -0.03804007 -0.01606049 0.0098656 0.02595419 -0.01904064
0.042878963 0.044374663 0.011164638 0.030459538 -0.07445961 0.0013163328 0.024839608 -0.019338919
-0.028062213 0.08970122 0.012828993 -0.025619522 0.052232277 -0.10328226 0.040065225 0.02044766
-0.074822865 -0.010229968 -0.027747547 0.087677784 -0.005030075 -0.011496882 0.031528827 0.06736007
-0.029823804 -0.026243966 -0.03971611 0.026364265 -0.06411078 -0.027474286 0.0123051675 -0.050226007
0.00902508 0.10229063 -0.024412524 0.0011760491 -0.09913195 -0.0057691466 -0.0055292966 0.012092963
-0.023709467 -0.022894517 0.015025531 0.0115529075 0.041249745 -0.01945546 0.073272385 -0.0570731
-0.009108969 0.010539113 -0.025472853 -0.011343708 -0.022882061 -0.02317206 0.037643753 0.018739194
0.009646422 0.002927907 0.029170416 -0.030053912 -0.015480388 0.0254105 -0.01588341 0.04824307

res1.conv2.bias f4 [32]
00000000: b6c6 883c fb9c 183c 0c2a b03c 1d48 f5bc
00000010: c8cb 14ba 1b75 0bbd 376a c5bc 529b 13bd
00000020: 1d7d 36bd 5bab e1bc 8133 e6bc 6b3c 69bd
00000030: ebea a63b 67a4 16bd 8372 dcbc 1cb1 15bd
00000040: c8fb bdbd 873a b8bc 21e8 543c c485 753c
00000050: 3678 15bd f397 40bb 9e0b e63c 9811 4dbd
00000060: bd21 49bb d77d 3d3d 151d c33a 3c65 31bd
00000070: 7247 df3c 52b4 10bc 0bb1 f13b 2d4e 6dbd
0.016696315 0.009314771 0.021504425 -0.029941613 -0.0005676118 -0.034047227 -0.024098499 -0.036036797
-0.04455291 -0.027547529 -0.02810073 -0.056942385 0.0050939224 -0.03677788 -0.026910072 -0.036545858
-0.09276539 -0.022488846 0.012994797 0.0149855055 -0.036491595 -0.0029387444 0.028081711 -0.050065607
-0.0030690276 0.04626259 0.0014885986 -0.043309435 0.027255747 -0.008832054 0.0073758415 -0.057935882

res2.conv1.weight f4 [32, 32, 3, 3]
00000000: c488 9dbc 81b2 48bd a9c5 71bc 537e 69bd
00000010: df14 6fba 9a5a 22bd c67a b13c 173f 0e3d
00000020: c379 73bd 1baa 983c ae93 ddbd 1a6b babc
00000030: a671 03be 6cd2 ea3c 8353 cd3c 5e7c 303d
00000040: f48c 583d 3783 a13b 0e96 5cbd 008e 5c3c
00000050: fdf6 4e3d 08b7 32bd 5907 08bd ad64 34bc
00000060: 8261 c63d 682d 1e3d eaac 57bd 673e ecbc
00000070: a8c6 353d 510b 843c d137 b8bc 9dd4 9c3d
00000080: 578e 5b3d f519 003e 07ed 493d cb1c 71bc
00000090: ea66 3cbd 438b 403d d774 35bc 9fb7 1b3d
000000a0: f8c5 373d 28a0 3bbc 04a0 c43d 4536 0e3c
000000b0: 18c1 063d a246 35bd ce07 ec3c aa1b 2c3d
000000c0: 9420 1fbd 22c9 6f3c 4e60 323d 138e 56bd
000000d0: 7109 663d d7d2 6b3b 6344 5a3b f576 90bd
000000e0: e082 623d 15ad 63bd 329f ccbb c0d9 9f3b
000000f0: e20a 24bc c4a2 b43c d084 373c 2287 3e3c
00000100: 8141 6ebd 5af6 013d bc57 a23d 587b 483d
00000110: f545 d3bd 7bf6 d23c 1ded 593d 412a c4bd
00000120: 53dd fd3c 6b9b aebc 9b7a 61bd 67ea 573c
00000130: 60fe 1e3d d1bf 863d 8754 a4bd 5b6d 9e3c
00000140: 5532 af3d b5f9 2cbd 837a 9ebc aea5 d0bd
00000150: 0113 82bd 20aa 49bd abb9 abbd 9c28 97bd
00000160: 48ba 8dbd 9303 02bd 0166 69bd 9a6f 973c
00000170: 4558 a4bd e6c6 1f3d e80b 7fbd 5e7a a53b
00000180: 03a7 b83c 1a57 623c 2e69 323d f4a9 1b3d
00000190: a17c 173b 037b df39 309b 5b3d e513 fb3c
000001a0: 6c8e 93bd 06f0 813d 3591 433c 6735 223b
000001b0: adbc 0fbd 471b 14bd 3871 073b 5828 023d
000001c0: d2f2 c8bd 5c6f 8ebc 5b42 813d ffac 47bc
000001d0: 4438 8abd 124e 99bc 55dc 38bd 10cc 5e3c
000001e0: 1a9a 9f3c 31ca 513d 33fd b93d b0df 153d
000001f0: 09b4 0d3e a5c0 01bd 5684 72bd a49c 95bc
00000200: b8de 263a 6429 bc3d 02c8 32bd 732c 3b39
00000210: 32cb bcbd fa88 d43c 80f3 60bd fae9 32bc
00000220: a620 713d 068c fd3b be2f 3c3d c4d3 363c
00000230: cbb3 9ebc 05a3 2e3d 213c 28bd 9307 013d
00000240: 0695 de3c befc abbb 56b7 12bd 673a 6ebb
00000250: 01eb 78bb 4513 913c 39fd 83bd 3601 3f3d
00000260: 67f0 923b a68f 3abc c239 803c 191b 29bd
00000270: 1723 233d 7ee8 94bd 3a87 04bd d6eb 90bd
00000280: 4162 8bbc a082 fd3c f18b a33c 322f 3dbc
00000290: a4ef d2bb 4a69 1b3d 54a5 3fbd ff01 ac3c
000002a0: e0da 34bd 8fc0 813d fe95 3bbc dd50 60bc
000002b0: 45f2 a3bc ca56 ccbd d174 b1bc 6da5 3ebc
000002c0: 9766 01ba 5cd0 55bd 8c14 d6bc bea4 f2ba
000002d0: 69c4 9fbd 2131 6cbd 2e08 b8bc e58d 84bb
000002e0: 7c2a 21bd 107c 4e3d 87d7 db3b 4a3c b0bd
000002f0: a70e 463c 1556 81bd 94be 09bd 7186 5b3d
00000300: 1152 bb3c 8d85 8c3c 937c a13a 608c 293b
00000310: 4d65 b6bc f10a 60bd 9443 6ebc c6c2 6c3d
00000320: 7f0f e83d 78fc e6bb 9d8e a33d 00b2 2dbd
00000330: 8fd9 f9bc 9aa4 91bd 123f 28bd da34 e6bc
00000340: 0f19 15be fffd 283d f719 e33c 5d9c 033d
00000350: bd0f 19bd bd4a 093d a25b 973c 95d2 673d
00000360: fdbb 33bd 0cde 57bd 3dd3 f8bb bf90 313d
00000370: 3a2d 243d b9d0 93ba 7815 e83d 2a4a 553b
00000380: aa91 1f3c 815a 03bd df3d f13c 2182 a93d
00000390: 37a5 01bd ce4b 583a 92d2 cdbc 1e60 153d
000003a0: 2191 9bbd 23b1 1bb9 709a 67bd 1b32 243c
000003b0: 95c0 e8bc 7ab7 b9bc 8a26 b3bd bb29 783a
000003c0: db74 07bd a0f2 d63d 6f80 f93c d588 a73c
000003d0: e047 b5bc 6e34 1cbc c4d4 3f3d 5db8 8c3d
000003e0: 16e5 863d 337e 53bd 5214 413d 7431 163d
000003f0: 2aae 183c e562 ce3c 4b01 cf3a 560e adbc
-0.019230254 -0.04899836 -0.0147565985 -0.057005238 -0.00091202365 -0.039637186 0.021664988 0.034728136
-0.059442293 0.0186358 -0.10819183 -0.022756148 -0.12836322 0.02866479 0.025064236 0.043087356
0.0528688 0.004928972 -0.05385404 0.01346159 0.050528515 -0.043631583 -0.033210132 -0.011010331
0.09686567 0.03861752 -0.052655138 -0.02883835 0.044378906 0.016118677 -0.022487553 0.0765774
0.053602543 0.12509902 0.049298313 -0.014716337 -0.045996584 0.04700781 -0.01107522 0.03801691
0.044866532 -0.011451758 0.09600833 0.008679931 0.032898992 -0.044256814 0.028812315 0.04201857
-0.03884943 0.014635356 0.043548875 -0.052381586 0.056161348 0.0035983825 0.0033304922 -0.07053939
0.055300593 -0.055584986 -0.0062445635 0.0048782527 -0.01001236 0.022050269 0.011201099 0.011628898
-0.05816794 0.03172908 0.0792689 0.048945755 -0.103160776 0.025752297 0.053204644 -0.09578372
0.030989325 -0.021314343 -0.055048566 0.0131784445 0.03881681 0.06579555 -0.08023935 0.019339254
0.08554522 -0.042230327 -0.019345528 -0.10187851 -0.06351281 -0.04923451 -0.08385023 -0.073807925
-0.06920296 -0.03174169 -0.056982044 0.018485833 -0.080246486 0.039008044 -0.062267214 0.0050499877
0.022540575 0.013814712 0.04355734 0.038003877 0.0023115056 0.00042625525 0.053614795 0.030649135
-0.07204899 0.06344609 0.0119364755 0.0024751069 -0.035092045 -0.036158826 0.002066685 0.031776756
-0.09811939 -0.017387085 0.063114844 -0.012187242 -0.06749013 -0.018713985 -0.045132 0.013598457
0.019482661 0.051218215 0.09081497 0.03659028 0.13838209 -0.03167786 -0.059208237 -0.018263169
0.0006365585 0.09187582 -0.043647774 0.00017850268 -0.09218444 0.025944222 -0.05491972 -0.010920042
0.058869027 0.0077376394 0.045943968 0.011158887 -0.019372841 0.042635936 -0.04107297 0.031501364
0.02717067 -0.005248635 -0.035819374 -0.0036350728 -0.003798187 0.017709384 -0.06444783 0.046632014
0.0044842246 -0.0113867875 0.015652541 -0.041285608 0.039828386 -0.07270907 -0.032355525 -0.07076232
-0.017014625 0.030946076 0.01996419 -0.011546897 -0.006437259 0.03794221 -0.04678853 0.020997046
-0.044154048 0.06335556 -0.011449335 -0.013691154 -0.020012984 -0.09977491 -0.021662148 -0.01163612
-0.00049362466 -0.05220066 -0.026132844 -0.0018512232 -0.07801134 -0.05766404 -0.022464838 -0.0040452355
-0.039347157 0.050411284 0.0067090425 -0.08605249 0.012088454 -0.06315247 -0.033629015 0.05359501
0.02286628 0.017153526 0.0012320451 0.0025871024 -0.0222651 -0.054697935 -0.014542479 0.057802938
0.11331081 -0.0070491396 0.07986186 -0.042406082 -0.030499248 -0.071114734 -0.041075774 -0.028101373
-0.1456034 0.041257855 0.027722342 0.03213154 -0.037368525 0.03351854 0.018476311 0.05659731
-0.04388045 -0.052701995 -0.007593541 0.04335093 0.040082194 -0.0011277414 0.1133222 0.0032545426
0.009739319 -0.032068733 0.029448448 0.08276773 -0.0316517 0.0008251042 -0.025124822 0.036468618
-0.075960405 -0.0001484794 -0.056543767 0.010021712 -0.028412143 -0.022670496 -0.08747585 0.00094666675
-0.033070426 0.10495496 0.03045675 0.020450989 -0.022129 -0.009533985 0.04683377 0.06871102
0.065866634 -0.051634025 0.04713852 0.036668256 0.009318868 0.025193641 0.0015793232 -0.021125

res2.conv1.bias f4 [32]
00000000: 121c cb3b 79b7 3d3c 4e24 dabc 7905 e53c
00000010: 308f c5bd 5dd3 86bc e0df 533d 3668 9f3c
00000020: 3093 89bc c6bd 0c3d 134b 333c d8d5 b13b
00000030: f14c d53c 1002 4b3d 76dd 283d 7070 2f3d
00000040: f949 60bd 1b77 2a3d eca5 5bbd 8097 203d
00000050: c7e6 0e3d ef21 44bd ea72 fa3c c49f 7a3d
00000060: c690 12bc 5367 40bd f0d3 0ebc 8c8e 36bd
00000070: cc5e 5bbd 3a5d b4bd d5e9 843a f06f 09bd
0.0061984146 0.011579388 -0.02662864 0.027956711 -0.096464515 -0.016458208 0.051727176 0.019458871
-0.016793817 0.03436067 0.010943192 0.0054271035 0.026037665 0.049562514 0.041226827 0.042831838
-0.054758046 0.041617494 -0.053625032 0.03920698 0.034888055 -0.047883924 0.030572373 0.06118752
-0.0089456495 -0.046973538 -0.008717522 -0.044569537 -0.053557202 -0.08806844 0.0010140488 -0.033554018

res2.conv2.weight f4 [32, 32, 3, 3]
00000000: 5b79 0c3d 9909 6ebc 5593 81bd e7f3 81bd
00000010: de6a 8e3d 9e6e 743c 5578 21bd c25f 68bd
00000020: b07d 9e3c 7f66 16bd 2caa 01bc 9d2b 44bd
00000030: 71bd 8d3d 7618 2dbd 8b0a 15bd 85b1 ac3d
00000040: 6d2c 29bd 45ee e9bc accd 363b 64d6 f2bb
00000050: 3d95 cc39 8e5d 5c3d 4259 0c3d c8b3 78bc
00000060: 9547 123d 41e0 eebb 0976 a83c a651 8f3c
00000070: d368 ae3d dff8 8dbb e953 1c3d 7d49 23bb
00000080: e27c cd3c be2b 18bd 97bc 04bd 8807 5dbd
00000090: 5402 792a dfc1 ffbb 9637 413c 3368 68bc
000000a0: 7594 883c d918 c0bc 1258 22bd ff2b f1bb
000000b0: 58b3 bbbc ffc9 b13c d387 b53c 0a86 543c
000000c0: 97aa 053d 6fbd 83bd e968 db3c 812a a4bd
000000d0: 596c e8bb 7552 863a 8144 7b3c c04e 0abb
000000e0: 7107 96bc 5815 8c3c d94d 0bbc 0204 c8bb
000000f0: 588f 57bb 838a a9bc 40bc 2b3d 94a1 843d
00000100: 920a 993c eef6 cd3b 1dd4 003d 5609 d23d
00000110: c6d0 39bc 96af e5bb f914 573c 0e8b 24bc
00000120: aa0e c3bc 9a5d 2f3d 72f7 18bd fd90 843d
00000130: 6fb2 2c3d 1d74 92bd 2c37 d63c c351 45bc
00000140: ccf7 ab3c 7255 06bc 9b81 8bbd bd03 d63c
00000150: 556d 9a3c ef46 053c 0bef 633c b970 0abd
00000160: 784e c13c 9a0a 113d 5e47 70bd 088d 083d
00000170: 0dac 84bd 54ca e53b 2e25 0ebc 2417 283d
00000180: 9a8f 5c3b f0a1 65bc 1abe adbd bf9b b0bc
00000190: 8323 3ebd 6833 cfbd 5259 d63d e1a7 a1bd
000001a0: eefb 4abd 7679 4fbd 08be 7abd 9c62 3b3d
000001b0: 052d fdbc 20e1 273b 8c41 b7bc 0e45 493c
000001c0: b1c0 3b3c 79ca b23c bfa0 1dbd 8a4e f93c
000001d0: c476 7dbb cd99 453d 66ff 9dbd 9da1 2ebd
000001e0: dd92 143d e589 f4bc 332a bcbc 3fc5 6a3b
000001f0: 06df 73bd b986 cebc e946 273d e76e a13d
00000200: 7c4a 95bc 0f81 6c3c 8b74 12bd 7cf1 b5bc
00000210: bdb0 ff3c ecb6 cfbd 5deb 243c 1ca7 113d
00000220: aefa 40bd 8395 3abb 7251 b53c 4eff e3bc
00000230: 6a06 55bd 938d dcbc 518c a2bc fae9 f5bb
00000240: 76ef 343c b034 d23c 6a7e 233b 05e3 973d
00000250: 2116 fa3a 58a4 0fbd 6fd3 a5bb 2076 65bd
00000260: 86f4 143c ab1e 003d 6fb2 c83d 9a4f fdbb
00000270: f3f7 ac3c e5b5 123d 2399 bcbc 0511 27bd
00000280: 3ccb 95bc 5ffa e7bc 29c5 f53b b325 483d
00000290: d3c6 3dba 9af6 b2bc 2064 123d 4655 2dbd
000002a0: 4729 503d a1d5 1bbd a4b0 533c e2ed df3c
000002b0: db72 203d 1592 d43c 23b5 3b3d 302a 323c
000002c0: 1be3 9bbd 74af 8abc a4f8 3ebc b928 30bd
000002d0: 108b beba c196 f73c ff28 ccbb 4315 c0bd
000002e0: 418c 453d dc08 05bc b6d5 65bb 4988 3cbd
000002f0: 984d 313d f49c e63c 6acd 47bb 71b7 c23b
00000300: 4bb7 843d bda1 dcbc 44ec 2d3c 3d0d 80bc
00000310: 4498 f8bb 0539 4bbc ef7e 50bd bb1b 413d
00000320: d230 c3bc 78ea 82bd 691e 153d 1a49 c0bb
00000330: 8805 26bc a767 b53d 5376 72bd bd90 923c
00000340: f67f 64bc ef5d 22bd 47bf b1bc 9bb3 69bd
00000350: 3c75 77bd b2b3 e1bc 5b12 183d 3e5b f4bc
00000360: c741 163d 5b08 573a c896 cabc 027f ea3c
00000370: e3ae 0f3d 047e 593b 0979 7dbd e5ba 723d
00000380: dd73 82bd d1ac a03c 5532 98bb cddf 51bc
00000390: 3477 953c e9df cebb c670 b839 0025 cc3c
000003a0: f28b df3b 7579 a0bc 0c9c 6c3c 942c f9bc
000003b0: fb95 2f3d 34c9 833c 9cc6 b5bc e4e8 31bd
000003c0: 48f3 4b3d 28cc 07bd 8213 8ebd 391c 2f3d
000003d0: ef87 d63c dcab 8dbb 8964 d3bc 4d26 8fbc
000003e0: 4112 bc3c 0a58 26bd 6082 283d afc5 a539
000003f0: b93d 073d 1e31 0f3d 754b 983b e57a 8dbc
0.03429542 -0.014528655 -0.063269295 -0.06345349 0.06953977 0.014918951 -0.0394214 -0.056731947
0.019347042 -0.03671884 -0.007914107 -0.047893155 0.06920899 -0.042259656 -0.036387008 0.08432297
-0.041302133 -0.028555999 0.0027893586 -0.0074108113 0.00039021103 0.05380016 0.03426481 -0.015179582
0.035712797 -0.0072899167 0.020564096 0.017494988 0.085160874 -0.0043326463 0.03816596 -0.0024915629
0.025083963 -0.03715109 -0.032406416 -0.05396226 2.211645e-13 -0.0078050937 0.011793038 -0.014184999
0.016672352 -0.023449348 -0.03963477 -0.007359981 -0.022912666 0.021702765 0.022159493 0.0129714105
0.03263339 -0.06432616 0.026783423 -0.080159195 -0.007092994 0.0010247963 0.015336157 -0.0021104068
-0.018314095 0.017100021 -0.008502447 -0.0061039934 -0.0032891836 -0.02069593 0.041927576 0.06476131
0.018681798 0.00628554 0.031452287 0.10255687 -0.011341279 -0.007009457 0.013127559 -0.010042919
-0.023810703 0.042813875 -0.037345357 0.06472967 0.042162355 -0.07151053 0.026149355 -0.012043419
0.020992182 -0.008199083 -0.0681183 0.02612483 0.018850962 0.008134588 0.013911973 -0.033798907
0.023596987 0.0354105 -0.05866181 0.033337623 -0.064781286 0.007012645 -0.0086758565 0.041037694
0.003365493 -0.01401566 -0.084835246 -0.02155864 -0.046420585 -0.10117227 0.10466255 -0.078933485
-0.049556665 -0.050652944 -0.061216384 0.045748338 -0.030905256 0.0025616363 -0.022370122 0.01228453
0.011459515 0.021825062 -0.038483378 0.030432958 -0.0038675526 0.04824238 -0.07714729 -0.042634595
0.036272872 -0.02985091 -0.02296934 0.0035823134 -0.059538864 -0.025210725 0.04083911 0.07882481
-0.018223993 0.014435067 -0.035755675 -0.022209875 0.031212205 -0.101423115 0.010065881 0.03555976
-0.047114067 -0.0028470464 0.022133563 -0.0278317 -0.05200807 -0.026922977 -0.019842299 -0.007504699
0.01104342 0.025659889 0.0024947175 0.074163474 0.0019080081 -0.03506884 -0.0050606052 -0.056020856
0.009091502 0.031279247 0.097996585 -0.0077304365 0.021114325 0.035818 -0.02302224 -0.040787715
-0.018285386 -0.028317628 0.00750031 0.048864078 -0.0007239405 -0.021846104 0.035740018 -0.04231765
0.050820615 -0.03804553 0.012920532 0.027335111 0.039172035 0.025948564 0.045827042 0.010874316
-0.07611676 -0.016929366 -0.01165596 -0.043007586 -0.0014537293 0.030223252 -0.006230473 -0.09379055
0.04822946 -0.008119788 -0.0035070009 -0.04602841 0.04328689 0.028151013 -0.0030487427 0.005942278
0.06480273 -0.026932592 0.010615412 -0.015631313 -0.007586511 -0.012403731 -0.050902303 0.047145586
-0.02382699 -0.063923776 0.036405955 -0.0058680894 -0.010133155 0.08857661 -0.059194874 0.017891282
-0.013946524 -0.039640363 -0.021697653 -0.05705605 -0.060414538 -0.027551506 0.03712688 -0.029828664
0.036683824 0.0008202844 -0.024730101 0.028625015 0.035078894 0.0033186683 -0.061883006 0.059260268
-0.063697554 0.019613655 -0.004644672 -0.012809706 0.018245317 -0.0063133133 0.00035179238 0.024919987
0.0068221027 -0.019589165 0.014441501 -0.030416764 0.042867642 0.016087152 -0.02218943 -0.043434992
0.049792558 -0.033153683 -0.069373146 0.042751525 0.026187865 -0.0043234657 -0.025804775 -0.017474318
0.022957923 -0.040611304 0.04113996 0.00031618538 0.033017848 0.03495895 0.004647667 -0.017270515

res2.conv2.bias f4 [32]
00000000: c64a a23c 418b f13b e71d 7e3c 55e9 59bd
00000010: a4a6 6ebd 4fb8 0ebd 849e e83c 77d7 a6bc
00000020: e7bf 8b3c 9c4c a1bc bbd7 d03c 1b03 103c
00000030: a09b babc d0fd 77bd 88fd 2dbd 0766 88bd
00000040: 92e7 68bc 808c 87bd 50aa 82bd e694 40bc
00000050: 51a0 2dbd 9aff 0f3a a8d3 df3b d50e fe3c
00000060: 1c73 923c b013 863d 5154 263b f03d 90bd
00000070: 5d60 7abb 7993 32bd af40 0f3d ba02 c53c
0.019811045 0.0073713367 0.015510059 -0.05320104 -0.05826439 -0.03484374 0.028395899 -0.020366414
0.01705928 -0.01968985 0.025493493 0.008789803 -0.022779286 -0.06054479 -0.042478114 -0.06660085
-0.014215367 -0.06618595 -0.06380141 -0.01175425 -0.042389218 0.00054931047 0.0068306513 0.031012932
0.017877154 0.06546724 0.0025379846 -0.07043064 -0.003820441 -0.043597672 0.034973796 0.024049152

res3.conv1.weight f4 [32, 32, 3, 3]
00000000: d739 7ebc 1537 a73d 6b20 213c 15ed da3c
00000010: 661c 9c3c 275f 77bd 5c60 babc 423c cb3d
00000020: 5efd 553d 8613 2d3c 7a66 bc3d 4116 c03d
00000030: c0a0 c8bc cf79 5cbc 18e0 b03d 9deb 5ebd
00000040: 1d31 d23c ef98 413d 682a 7e3d 6ffe 243d
00000050: b210 813c 7987 113c 8e02 8abc 0b8a 3c3c
00000060: e057 dfbd 7495 5b3d 7cd0 a4bb 4860 873d
00000070: 98ca b63d e0cd 6ebd 4bb4 e53b 4b19 9abd
00000080: 5670 993d 51be f3bd ceec 143e fc0f 2fbd
00000090: 9000 0abd 7413 b13c 272f 6bbd ed12 533c
000000a0: ca4f 2bbd 6b53 44ba 5ee0 233c cba9 953d
000000b0: d15e 493c 0c13 2b3d 3811 de3d 7e90 31bd
000000c0: a8af abbd c50d 903d f05b bc3d 06cd 2cbc
000000d0: adaa 91bd 1445 83bd 6c86 343d 406a 913c
000000e0: d813 953c 1f13 913c 5a53 0b3d 0247 b73c
000000f0: 1273 7e3c 58fb 233d 9f41 45bd fe07 3a3d
00000100: 85f6 ea3d 7e8d ccbd 96a1 ba3c 819b e1bc
00000110: 8506 603c 41a0 5fbd 456e a23d 541f e8bd
00000120: aaa5 263d 3d84 03bd 82d8 573d aa0b 393c
00000130: 0822 1b3e 8dea 32bd c75e 2b3c 18bb 553c
00000140: 25a6 78bd 80ea 0b3d 10dd 113d 38f7 49bd
00000150: 7302 fabb e701 48bc 99f0 2b3a 962c db3c
00000160: cb45 a2bc 058f c6bc 8997 5cbc 7c56 12bd
00000170: 929d 9c3d 1b84 30bd cb80 a9bc fe84 0dbc
00000180: 02e6 253b 0c7f 6a3d 800c 25bd df78 3c3d
00000190: d91e 57bd a7ce 1f3d 52f0 9bbc ea4f 823d
000001a0: 4f8b 0dbd 3a16 873d 9d01 883d a575 c7bb
000001b0: 7fdf bd3c 1e37 a5bc 8045 bcba 32c8 4abd
000001c0: 57cf 6d3d 12a2 a13c 225a 233c 25dd 2ebd
000001d0: 82e2 9bba e0b6 8f3d 41b4 4ebd 8605 49bd
000001e0: fede 923d 2483 70bc c831 7a3d 94be 9b3d
000001f0: 104f 0fbd 9597 b93d 7db1 ef3c 6e7d 253d
00000200: 23ad 52bd 64a8 4cbd 4f29 2c3e 33ff 7ebb
00000210: 54ec c6bc 3001 483c 1af0 debb 5608 833d
00000220: 17a2 3c3d e37d 70bc 88ba 4a3c 9241 a9bc
00000230: 686b 11bd 1faa df3c 3a9c 0fbc 2ef7 843d
00000240: 1e07 8b3b 9c15 7c3c 2e8b 843b 469d 863c
00000250: 6133 9e3d a741 74bd dc90 81bb b43a 383d
00000260: b1d8 febb 2ddc 153d 87f2 39bc 9276 663d
00000270: c52d 53bd a4dd 083e 4dca 5dbd a6e5 793c
00000280: c662 623c c27e b03b 6a82 433d a7db 39bc
00000290: 523b 933c 13b9 e9bc ad54 2ebd 7fcf 84bb
000002a0: 580b 923d c393 b2bd 22c0 e8bc ef55 0c3d
000002b0: 1038 40bc 1170 0abd 025b b6bd bb63 003d
000002c0: 6d88 9e3c a782 253d 0355 ceba f10c c73c
000002d0: 12ef 3dbd b64f ca3c 7c90 e33a f4f4 293d
000002e0: a661 283d edcf d33b a6bf 35bd f8b2 473d
000002f0: 2fd6 67bd 8ff0 1cbd f5ab 793d 4364 9e3b
00000300: 5f33 79bc e419 82bc 56a6 7a3c dc45 00bc
00000310: e447 c6bc 440e 00bd c3db 84bc 6ba1 3a3d
00000320: 8e63 a5bd 59ca adbd 66d1 1e3b e0f9 063e
00000330: d089 603d cb48 4dbb 48be b2bb 56bd e83c
00000340: c443 783d 8b4c 283c 698e ebbc 09d5 a4bc
00000350: 64d0 4a3d 15cf a43d f624 fc3d 7c52 3d3d
00000360: 47d1 36bd e828 d23b db28 513d 5f6b 933d
00000370: 45f9 323b 3c45 acbb a5b8 1cbc c45b 223b
00000380: 7d17 2d3c e9c3 8ebc 01e5 e53c 0ca6 0f3d
00000390: f681 52bd d22a 1a3b 9084 603c f831 123d
000003a0: 8bef f93d b76e e1bd 48b6 493d a3f9 2c3d
000003b0: 61c6 b6bd bfa8 9fbc 7ddf 823d 9b6b 613d
000003c0: 6b2a 34bd 3a45 d53b ab4a 403b b68e 6a3b
000003d0: 8368 5ebd df8c 2c3d 8f27 4cbd bf6b 3e3c
000003e0: 88c2 f9bc 8a56 8c3d 0f7c f5bc 51a4 8dbb
000003f0: 0963 973d f4da 5c3d e5ef f13d 014d 993c
-0.01551672 0.08164803 0.009834389 0.026724378 0.01905651 -0.06039348 -0.022751026 0.09923603
0.052243583 0.010563737 0.09199233 0.093792446 -0.024490714 -0.013456776 0.086364925 -0.054423917
0.025658185 0.04726499 0.06205216 0.04028171 0.015755031 0.008882397 -0.016846921 0.011507521
-0.10905433 0.053609326 -0.005029736 0.06610161 0.089253604 -0.058301806 0.007010018 -0.075243555
0.074921295 -0.11901534 0.14543459 -0.042739853 -0.033691943 0.021615721 -0.057418015 0.01288293
-0.04182414 -0.0007489237 0.010002224 0.07307776 0.012290672 0.04176621 0.10843128 -0.04335069
-0.08383113 0.07033876 0.09197223 -0.010546928 -0.07112632 -0.0640966 0.044073507 0.01775086
0.018197939 0.017709313 0.034015037 0.022372726 0.015530365 0.040034622 -0.048158284 0.04541778
0.11472801 -0.09987925 0.022782128 -0.02753997 0.013673429 -0.05459619 0.079311885 -0.113341
0.040685333 -0.032108534 0.052696712 0.011294285 0.151497 -0.043680716 0.010459608 0.013045095
-0.060705323 0.034159184 0.035611212 -0.04930803 -0.0076296865 -0.012207485 0.0006558984 0.026754659
-0.01980867 -0.024238119 -0.013463863 -0.03572701 0.07647242 -0.043094736 -0.020691296 -0.008637665
0.0025314097 0.057250068 -0.040295124 0.04601371 -0.052519653 0.03901544 -0.019035492 0.06362899
-0.034556683 0.06596036 0.06640933 -0.0060870224 0.02317786 -0.020167883 -0.0014363974 -0.049507327
0.058059063 0.019730601 0.00997022 -0.04269137 -0.0011893066 0.070173025 -0.050464872 -0.049077533
0.07171439 -0.014679704 0.06108263 0.07604709 -0.03498751 0.09062115 0.029259438 0.040402822
-0.051434647 -0.049965277 0.16812633 -0.0038909435 -0.024282612 0.012207314 -0.0068035247 0.06398074
0.04605302 -0.014678451 0.012373574 -0.02066115 -0.03550282 0.0273028 -0.008765275 0.06492458
0.004242792 0.015386011 0.004044912 0.016432416 0.077246435 -0.059632923 -0.003954036 0.04497786
-0.0077772965 0.03658693 -0.011349327 0.05626542 -0.05155732 0.13365799 -0.054148007 0.015252506
0.013817495 0.0053862045 0.047731794 -0.011343873 0.017972622 -0.028530633 -0.042561222 -0.004053056
0.0713107 -0.087195896 -0.028411929 0.03426164 -0.011732116 -0.03379828 -0.08904077 0.03134511
0.019352162 0.040407803 -0.0015741888 0.024298163 -0.046370573 0.024696212 0.0017361785 0.04149337
0.04110875 0.0064639957 -0.044372223 0.048754662 -0.056600746 -0.038315352 0.060955007 0.0048337295
-0.015210002 -0.015881486 0.015298447 -0.007829156 -0.024204202 -0.031263605 -0.016218072 0.045564096
-0.08075629 -0.084858604 0.0024233698 0.13181257 0.05481893 -0.0031323906 -0.005454812 0.028410595
0.0606115 0.0102721555 -0.02875443 -0.020121114 0.049515143 0.0804731 0.12311737 0.04622124
-0.044633176 0.006413568 0.051064353 0.07198214 0.002730922 -0.005257277 -0.009565507 0.0024773935
0.010564682 -0.017427402 0.0280633 0.035070464 -0.05139347 0.0023524058 0.01370348 0.035692185
0.12203892 -0.11007445 0.049246103 0.04223026 -0.089245565 -0.019489644 0.06390283 0.05503426
-0.043985765 0.0065084966 0.002934138 0.0035790629 -0.05429889 0.042126533 -0.049842414 0.011622368
-0.030488268 0.068524435 -0.029966382 -0.0043225666 0.07391936 0.053919747 0.118133344 0.018713476

res3.conv1.bias f4 [32]
00000000: b0f8 92bc 17b2 e1bc 780f 693c 8a3a aeb9
00000010: 6499 80bd d0c7 493d 6925 0dbd ba89 b53c
00000020: 56e7 24bd 318d e0bc 308c f33c dc4a ecbc
00000030: 894e 0cbd 20a7 2b3d ae4d 073c 814a d9bc
00000040: ee52 f33c 18d8 b2bc ba78 cd3b 6414 7ebd
00000050: 630d 0e3d dc1b bfbc 9849 873d 5bcd f8bc
00000060: ffc6 bfbd 7bb9 9fbc 9c86 77ba 7c79 393b
00000070: 2578 eb3c e69e a13b 4a81 103b 5d98 11bc
-0.017940849 -0.02755074 0.014224879 -0.0003323148 -0.06279257 0.04926282 -0.034459505 0.0221604
-0.04025968 -0.027411075 0.029729933 -0.02884429 -0.034254584 0.04190743 0.008258266 -0.026524784
0.02970263 -0.021831557 0.0062704952 -0.062031165 0.034680735 -0.023328714 0.06605834 -0.030371359
-0.09364127 -0.019497624 -0.00094423606 0.002830117 0.028743813 0.0049322722 0.0022049719 -0.008886424

res3.conv2.weight f4 [32, 32, 3, 3]
00000000: 9db5 443c b854 713b 5c73 683d acef 113d
00000010: 029d 76bd 3354 813b c092 88bc c722 bc3d
00000020: d33b 96bd 33eb 80bd c83d 49bc 4d9c 513d
00000030: 8177 8ebc 6b1a 853c 43eb 29bd c5da b53b
00000040: 428c c23c 4d77 343c 2c32 2f3d 4324 823d
00000050: 40ec 8a3d 0503 443d 6eee 8d3c 02b9 3c3d
00000060: 547f 0dbb b9ef 21bc 0de9 f0bb 6840 14bd
00000070: a672 e839 0d64 27bd 7bdd 80ba ce0c 273d
00000080: 23af 3a3d 515c 86bc f954 ef3c 6f89 a1bd
00000090: d2ed 8cbc cbfe 593c cc8d b93d cca2 7e3d
000000a0: 2726 4c3d 3f25 753d e39a 293d 7cb7 823c
000000b0: c650 3c3d 346e 1e3c 4e88 b3bc 82f2 18bc
000000c0: f4ca a9bd 5bd2 87bd 9661 1d3c 5faf 02bd
000000d0: ae5d 843d 7488 283d ebe2 e33d a132 4d3d
000000e0: 8233 8d3c d59e 103d 93f9 e33c 56d9 08bc
000000f0: 13f4 683d 15b5 0cbd 29d2 293d eeb0 843d
00000100: c870 65bd cc60 86bc 61dc 1a3d eded ca3d
00000110: d0df 333d f302 453d 25a0 1ebd de7f 043d
00000120: 5e32 adbb 78df 15bd 4213 c5bb 837b 0fbc
00000130: 7bc6 873d 5a57 2a3d 8daa f439 52a4 af3b
00000140: 71f4 b4bc de15 acbc 00e9 1b3d 825e 8e3c
00000150: d080 823c 27ee a93c 36cb ef3c d49b c53d
00000160: 5b30 92bb 9799 7d3c e404 223e 2abc e43d
00000170: eef2 873d cb91 a0bc 2b2b 4fbd 6f25 28bc
00000180: 00e5 90bc 1d22 c33b cb7c 263c 5aae 263c
00000190: 2c7b 4bbc a7db 41bd 2cbc e6bc 8d69 82bc
000001a0: 76d6 c6bb 5ab5 95bb dbd7 593d 1654 5aba
000001b0: bd76 a33c 0612 ff3c a9ff a6bc 637d 1ebd
000001c0: 11d6 4abc 91ec fc3b 0b12 38bc 477c 35bd
000001d0: 582a bf3d dc9b 4fbd c5e8 ff3c f507 493c
000001e0: 4a32 24bc 1b04 bb3d 41a1 10bd a387 403c
000001f0: fd85 15bd a573 0f3c b165 2fbd e5db 313b
00000200: eb34 9d3b 3639 853c b7e3 423c 957f debb
00000210: 35ed a2bc 3df4 7e3d 5745 4d3d 87f2 a2bd
00000220: 2aab 4b3d 5897 9f3d ef1b b33b 3138 e1bd
00000230: 2369 9d3d 73ef 07bd 2dce 853c 2bbc 5abd
00000240: e271 173d b065 64bc 7e6d 07bb ab8c 3fbd
00000250: 0561 dc3d 06d3 acbc b81d 513d 6308 0fbd
00000260: 11a3 923c 7043 323d f84d b33b e3e8 ffbc
00000270: dda9 a83c 2828 a8bc 4dc9 bfbc a039 72bc
00000280: 12ee afbd e3ae 213c 6ee9 8dbd 15cb 4bbd
00000290: 0496 f83c a020 1f3d 956f 853d 9676 85bd
000002a0: 1e81 c53c 4134 883d d8ec 0fbd 58ef c5bc
000002b0: b313 d4bc c7d7 8fba e972 c4bb d451 e8bb
000002c0: 1ec8 8abd 3545 98bc aa8f 4a3c 1e8a 263b
000002d0: 23e9 8c3d 274f 313d 123d b1bc e64c f53b
000002e0: 4aa2 e6bc 7875 5cbc d36d 293d 2857 01bc
000002f0: 7db3 ef3c e861 52bd bd5c 9cbd 4a02 b33b
00000300: 0049 223d e5ba cf3c b294 5d3b 018a 193d
00000310: 9da8 23bd 82e3 813d 3875 a6bb 7f96 953d
00000320: b726 5d3d 810c 603d c157 d23c 31bf 94bc
00000330: 5843 763d 580d 96bb 8ae8 6c3c 2095 0bbb
00000340: 1b1a 6e3d 0f82 8bbc d9f9 563d 90c7 7c3d
00000350: 7178 febc 2889 213d 9552 cb3b 4461 323d
00000360: 52e4 b33c 2c7b 353d 8bf1 0d3d 4d4f fe3c
00000370: 5e64 5c3d ffc3 dbbc 38a7 1abd 15af 3ebc
00000380: 06f3 4dbc 4cf9 993c c3dc c33d af8a 713d
00000390: ab17 a63d 7cde 5ebd 2cc3 3f3c 58c5 e63c
000003a0: eaba 773c e14b 7f3c 94cf 6d3b 1ca3 743d
000003b0: e671 4bbd d3aa 343d 3b71 703c 0dec 123d
000003c0: f6a4 073c e531 863a e648 abbb 6b8d 6dbc
000003d0: 9e06 0a3d fbfb 513c 7ac0 a93c 4312 703c
000003e0: 641f 2abd 2a63 a6bb 0b06 ac3d bee0 20bb
000003f0: 6e47 e639 d049 f03d edd8 623c 6b3a 3c3d
0.012006191 0.0036824178 0.05675064 0.03562896 -0.060208328 0.003946805 -0.016671538 0.09186321
-0.07335629 -0.06294861 -0.012282796 0.05117445 -0.017390968 0.016247949 -0.04148413 0.005549761
0.02374852 0.011014772 0.042772457 0.063545726 0.06783342 0.047854442 0.017325606 0.046074875
-0.0021590786 -0.0098838145 -0.0073520006 -0.036194235 0.00044335908 -0.0408669 -0.0009831631 0.040783696
0.04557718 -0.016401442 0.029215323 -0.078875415 -0.017203245 0.013305376 0.09060249 0.062166974
0.049841072 0.059849974 0.041407477 0.015956633 0.04597547 0.009669829 -0.021915581 -0.009335162
-0.08290663 -0.06631919 0.009605786 -0.03190553 0.064631805 0.041145757 0.111272655 0.05009711
0.017236475 0.035307724 0.027828967 -0.008352598 0.056873392 -0.03435238 0.04146019 0.06479059
-0.05601576 -0.016403578 0.037807826 0.09908662 0.043914616 0.048098516 -0.038726944 0.032348506
-0.0052855453 -0.03659007 -0.0060142586 -0.008757475 0.06629654 0.04158721 0.00046666377 0.0053601647
-0.022089215 -0.02100652 0.038064003 0.01737905 0.015930563 0.020743443 0.029271703 0.096488625
-0.004461331 0.015478513 0.15822178 0.11168702 0.06638132 -0.01960077 -0.050578278 -0.010262831
-0.01768732 0.0059549944 0.010161589 0.010173405 -0.012419503 -0.047328617 -0.0281659 -0.015919471
-0.006068046 -0.004568738 0.05318437 -0.000832857 0.01995408 0.031136524 -0.02038558 -0.038693797
-0.012380139 0.0077186306 -0.0112347705 -0.044307973 0.09334248 -0.05068575 0.031238923 0.0122699635
-0.0100217555 0.091316424 -0.035310034 0.011751088 -0.036504734 0.008755599 -0.04282159 0.0027139124
0.004797568 0.016262632 0.011895112 -0.0067901113 -0.0198885 0.062244643 0.050114956 -0.07956415
0.04972378 0.077925384 0.0054659764 -0.10997046 0.07686069 -0.03318734 0.016333664 -0.053402107
0.03697384 -0.01394026 -0.0020664628 -0.04676501 0.107606925 -0.021096718 0.051053733 -0.034920108
0.017900022 0.043521345 0.005471941 -0.031238979 0.02058881 -0.02052696 -0.023411417 -0.014784247
-0.0859033 0.009868356 -0.06929289 -0.04975422 0.03034497 0.038849473 0.06515423 -0.06516759
0.02410942 0.06650592 -0.03513798 -0.02416198 -0.0258883 -0.0010974341 -0.0059951437 -0.007089833
-0.067764506 -0.018587688 0.012363354 0.0025411914 0.06880405 0.043288376 -0.021635566 0.0074859736
-0.028153557 -0.013455741 0.041364502 -0.007894315 0.029260391 -0.051362902 -0.07634876 0.0054629194
0.0396204 0.025357673 0.0033810553 0.037485126 -0.039955724 0.06342222 -0.0050798915 0.073040955
0.053992 0.054699425 0.02567661 -0.018157573 0.060122818 -0.0045792274 0.0144597385 -0.0021298602
0.058130365 -0.01702979 0.052484367 0.061713755 -0.03106329 0.039437443 0.006204913 0.04354979
0.021959458 0.04430692 0.03465418 0.031043673 0.053806655 -0.026826857 -0.03775713 -0.0116384225
-0.012570148 0.018795632 0.09563591 0.05897015 0.08109983 -0.054411396 0.011704247 0.028170273
0.015120247 0.015582056 0.0036287056 0.059725866 -0.04966917 0.044108223 0.014675434 0.035869647
0.008279076 0.0010238258 -0.005227196 -0.014499049 0.033697717 0.0128164245 0.020721663 0.014652791
-0.041533843 -0.0050777392 0.0839959 -0.002454802 0.00043922238 0.117328286 0.013845664 0.04595415

res3.conv2.bias f4 [32]
00000000: 4670 083d 6465 f63d e95b 35bd ab53 033e
00000010: 4136 0d3d d3f2 113d 08fc 903d 46ac c63d
00000020: 1ffa 1bbc b69b 05bb 5b8e b63c 0da4 7abd
00000030: a89c ccbc 83bd 69bc bcfc 4b3c 3b6f 15bd
00000040: 8b23 303c aaa7 8dbd b0a2 96bd e367 ca3d
00000050: bbaf e23c 2254 4d3d 6d30 403d 96f1 7c3c
00000060: 149c 083d 2c21 d53c 3b0e cdbc 406e 2b3c
00000070: 5112 1a3c aa4e d4bc 434c 34bd 7fef adbd
0.033310197 0.120310575 -0.044277105 0.12824886 0.03447557 0.035631966 0.07079321 0.09700827
-0.009520083 -0.0020387 0.022284677 -0.061191607 -0.024977043 -0.0142663745 0.012450393 -0.03648303
0.010750662 -0.06916745 -0.07355249 0.09883096 0.027671685 0.050129063 0.046921182 0.015438458
0.033351973 0.026016794 -0.0250312 0.010463297 0.009403781 -0.025916416 -0.04401804 -0.08492946
