best_model.pth (torch, 239669 bytes, 22 tensors)

conv_input.weight f4 [32, 6, 3, 3]
000000 ea 87 2e bd c4 1e 23 bd f6 65 ef 3d 96 49 14 be
       -0.042610087 -0.039824262 0.116893694 -0.14481196
000010 3b b0 24 bc 96 9c 91 bd 93 a5 ba 3d 6b f0 2d 3e
       -0.010051782 -0.071099445 0.09113612 0.16986243
000020 62 73 42 bc 4c 75 25 bd d5 a8 31 3d 7f 93 03 3e
       -0.01186833 -0.040395066 0.0433739 0.12849234
000030 81 cf e3 bc 8c 84 78 3d 6e 86 98 bd dc 37 b4 bd
       -0.027808907 0.06067328 -0.074475154 -0.08799717
000040 9e b9 ae 3d bd be 92 3b 51 f6 8c 3b 35 51 e8 3d
       0.085314974 0.004478304 0.004301824 0.11343614
000050 bb 11 2a be 67 de 86 bd 21 45 69 be d4 f8 df 3c
       -0.16608326 -0.06585389 -0.22780277 0.02734033
000060 58 c1 78 3b 76 4d 1a bd a8 d6 f9 bc cc d5 ef 3d
       0.0037957039 -0.03767153 -0.030497864 0.117107004
000070 a6 fd 95 3d c8 25 a9 bc b8 b5 e2 bc 84 37 89 3d
       0.0732377 -0.020647898 -0.02767454 0.06700042
000080 6e 57 99 bd 5e 0c ee 3c 06 6d 0f bd 73 ee 11 be
       -0.07487379 0.029058632 -0.035016082 -0.14251117
000090 6d 12 f0 3d c4 b0 a2 3d 72 f5 64 bd a1 a6 b3 bd
       0.117222644 0.079438716 -0.055898137 -0.08772016
0000a0 bf b4 5f bd d9 20 9c bd 48 38 28 bd 8e 22 43 3d
       -0.054615732 -0.07623453 -0.0410693 0.047640376
0000b0 99 31 32 3c c7 1c cb 3d fa cf c1 bd bf 3c b2 bd
       0.010876083 0.09917598 -0.094634965 -0.08702993
0000c0 1d ee f0 bd dc ba cf bd 80 86 ae 3c c2 bb b6 3c
       -0.117641665 -0.101430625 0.021304369 0.022306327
0000d0 08 80 1d bc 93 ae 83 3c 5d 65 cb 3d a8 1d 31 3e
       -0.009613045 0.016074454 0.09931443 0.17296469
0000e0 be de ae bd 16 bb d7 bc 27 c2 cc 3c 72 9b b7 3a
       -0.085385785 -0.026334327 0.024994923 0.0014008118
0000f0 18 07 91 bd df 44 89 bd ab 87 cd 3d 02 69 10 bd
       -0.07081431 -0.06702589 0.10035642 -0.035256393
000100 e9 d9 66 bd 60 6b 3d 3e 54 c2 0d 3d 7e d8 29 be
       -0.05636016 0.18497992 0.034609154 -0.16586491
000110 7a c2 29 3e f5 9a 2b bc 60 20 45 3d 8a 71 96 bd
       0.16578093 -0.010473956 0.04812658 -0.073458746
000120 05 14 45 bd e2 d1 43 bd fe 21 a9 3c fd 31 fa 3d
       -0.048114795 -0.04780758 0.020646092 0.12216566
000130 d6 50 f4 3d 8a 0b b2 bc 05 db 47 3e ba 28 1a 3e
       0.11929481 -0.021734018 0.19517143 0.15054598
000140 b3 5e 47 3d e0 91 74 3d c4 9e 87 bd 33 28 d1 bd
       0.048674297 0.05970943 -0.06622079 -0.102127455
000150 9b 1b 04 3d 04 5d bc 3d 00 cc c3 bc 61 96 8b 3d
       0.03225289 0.09197429 -0.023900986 0.06815792
000160 ce 3f c8 bb d5 eb 64 3e 64 bb ac 3d f9 ac c6 3c
       -0.0061111217 0.22355588 0.084341794 0.024252402
000170 37 4a 4e bd 07 6c 7c bd 06 45 86 bd be ff 0b 3e
       -0.050363746 -0.06162646 -0.06556134 0.13671777
000180 1b d0 43 3c 8d fa 9e 3c c2 5c cb 3d 7e d7 af 3b
       0.011951472 0.019406581 0.099298015 0.005366265
000190 a4 9b ae 3d 22 27 1b bd e6 0a 92 3d f1 ef aa bc
       0.0852578 -0.037879117 0.07130985 -0.020866366
0001a0 20 33 e0 3d bd 25 d5 3b 97 8a 05 3c b0 79 dd bd
       0.10947251 0.006504743 0.008150718 -0.10814226
0001b0 f5 cc 71 bc 97 4f 63 3d 48 ac 36 3e e7 f9 f6 3d
       -0.014758338 0.055495825 0.17839158 0.12059384
0001c0 ae f4 97 3c fc 5e 22 3c 0f 16 9a 3c 81 fe f3 bd
       0.01854929 0.009910341 0.018809346 -0.11913777
0001d0 3f 2d 15 3c 2a 87 ce 3d ac 9b 08 be 6c be 0a 3e
       0.009105026 0.10084374 -0.13340634 0.13549203
0001e0 0a 69 2c bd 2d 44 31 3e 3b c3 f8 3d 6d cf 48 3d
       -0.04209236 0.17311163 0.12146612 0.04902594
0001f0 3f 02 98 bc 56 ef 83 3d 74 82 d9 3c ef 33 c6 bd
       -0.018555759 0.06442134 0.026551463 -0.09677874
000200 54 10 3b bd 22 25 ce bc f8 3f d1 bc 4a 85 00 3e
       -0.04566987 -0.02516419 -0.025543198 0.12550846
000210 58 16 c2 3d 33 88 48 3e 3b d3 9b bd a7 1a 94 3d
       0.09476918 0.19583206 -0.076086484 0.07231646
000220 3c 88 c1 3d a6 6e 72 bd d7 e6 01 be e3 40 ba 3d
       0.09449813 -0.059187554 -0.12685715 0.090944074
000230 5a 5d 02 3e db 6d ad 3d 80 2d 73 3d 31 24 04 3e
       0.12730923 0.08468219 0.059369564 0.12904431
000240 aa 88 f4 bd 2a d0 28 bd 38 e8 15 3e 82 61 3f bd
       -0.11940129 -0.041214146 0.14639366 -0.04672385
000250 28 fe 1c 3d e5 e4 b6 3d ce da 8c bc 68 7e a1 bc
       0.03832832 0.08930377 -0.017194178 -0.019713596
000260 8d 21 ef 3d fa fa 9f 3d c3 17 a9 bd 8b bf 04 be
       0.11676321 0.07811542 -0.08256485 -0.12963693
000270 ab f8 c9 bd 5f 17 55 3d 49 2d 87 bc 35 e2 a9 b9
       -0.09861883 0.05202424 -0.016501086 -0.0003240273
000280 dc 92 87 3d c6 fb 2a 3d 28 87 c4 3d ee 11 f9 3d
       0.06619808 0.041744016 0.095960915 0.12161623
000290 9b 97 4a be 92 e4 7f bd 67 af 8b 3d 4a 99 58 3c
       -0.19784395 -0.06247384 0.06820565 0.013220141
0002a0 34 e8 d3 3c 1f d6 dc bd 4c cc b5 bd 63 4b 29 3d
       0.025867559 -0.10783028 -0.08876857 0.04133166
0002b0 3c de 12 bd 89 07 a0 3b 6b d7 1a 3d e2 f5 4b bd
       -0.03585647 0.0048837108 0.037803095 -0.04979504
0002c0 06 f1 ed bd e1 bf d6 bd 50 40 68 3d 31 84 de 3c
       -0.11618237 -0.10485817 0.05670196 0.027162643
0002d0 e1 7e 52 bb 81 30 19 3e f8 78 1a 3e ad b0 46 be
       -0.0032119083 0.14959909 0.15085208 -0.19403334
0002e0 b0 34 1e 3c da 8f 2a be b9 b1 1e be b9 8c 48 3e
       0.009656116 -0.16656438 -0.15497483 0.19584931
0002f0 ed 82 88 bd e1 a1 5f bd 58 09 e3 3d d8 2b e8 3d
       -0.06665597 -0.05459774 0.110857666 0.113364875
000300 71 25 70 bd 90 dd e7 3d 78 ab db 3d dc c3 27 3d
       -0.058629457 0.113215566 0.107260644 0.04095827
000310 f2 e0 81 bd 31 93 17 3c cf 49 2b be ac e3 0b 3e
       -0.06341733 0.009251402 -0.16727374 0.13661069
000320 6f d6 4a 3d dd a8 54 3d 60 5c 0c 3c 20 84 10 be
       0.049520906 0.051918853 0.008566946 -0.14112902
000330 bb 30 ea bc b4 26 37 bd 5f c5 77 bd 51 ad 00 3b
       -0.02858769 -0.044714645 -0.060490962 0.0019634555
000340 1d 76 04 be 8c 37 cb 3d 6c 34 06 3d 68 c2 9e bb
       -0.12935682 0.09922704 0.032764837 -0.0048449524
000350 23 34 b3 bb fc 0e 89 3c 58 89 cf 3d 5a 60 05 3e
       -0.0054688617 0.016730778 0.10133618 0.13025036
000360 8b 96 62 bd b5 34 19 bc 5f 4e 9b bd b6 88 02 3e
       -0.05531935 -0.009350945 -0.075833075 0.12747464
000370 6b ea cb 3d 72 20 b6 bd 1e 68 1f bd e9 1b c9 bd
       0.09956821 -0.08892907 -0.038917653 -0.098197766
000380 86 35 60 3d 2e f5 c7 3d 21 e5 60 3d 31 cf 27 bd
       0.054738544 0.09763561 0.054906014 -0.040969077
000390 7b 9d f4 bd f3 4e 8c bd 47 6a 8f bd e5 de 22 3c
       -0.119440995 -0.06850996 -0.07002693 0.0099408375
0003a0 cd 4f f3 3d af 09 fb 3d 19 90 ec bd f9 bf 4b 3e
       0.11880455 0.122577064 -0.11550922 0.1989745
0003b0 f2 4d 69 3d c9 da a8 3d df db 32 3e 08 71 2d 3d
       0.0569591 0.08244855 0.17466687 0.042344123
0003c0 b6 39 fa bb b3 ee 08 3e ff 8f a0 bd a6 e2 af 3d
       -0.007636274 0.13372307 -0.07839965 0.08588152
0003d0 4e 24 fb bd b3 cb 1c 3e 86 b4 02 3e 72 19 e6 3d
       -0.12262784 0.1531208 0.12764177 0.11235322
0003e0 38 f5 79 3d c2 e4 21 3d c5 42 b9 bd 06 c8 76 3d
       0.061024874 0.0395248 -0.090459384 0.06024935
0003f0 3e 3a 27 3d c9 1c 3e 3c 3a 47 10 bc 84 e6 35 bd
       0.04082703 0.011603543 -0.008806044 -0.04440929

conv_input.bias f4 [32]
000000 39 a8 73 bd cc 4d 4a 3d 9f d6 89 3d 2d 51 88 3d
       -0.0594866 0.0493906 0.06730389 0.06656108
000010 b4 7c 76 bd 0c 23 30 3b 59 e1 2c 3d 11 36 dd 3d
       -0.06017752 0.0026876358 0.042207096 0.10801328
000020 18 58 71 bd 41 56 3f 3d e0 a4 8e bd 85 24 f1 bd
       -0.058921903 0.046713118 -0.06965041 -0.11774544
000030 61 f9 69 bd 91 bb 6b 3c 9c 27 da 3c c2 a5 21 bd
       -0.057122592 0.014387981 0.026630215 -0.03946472
000040 77 0d 06 3c c4 23 c2 3d ca 89 6a 3d fd 43 41 3d
       0.008181921 0.09479478 0.057260312 0.04718398
000050 06 1d 1b bd 2c bc c4 3d 8b de 73 3d cc dc 9d 3d
       -0.037869476 0.096062034 0.059538405 0.07708129
000060 f2 49 ee bd 08 fe 93 3d dd be ea bc 9d fc d3 bc
       -0.11635198 0.07226187 -0.028655464 -0.025877291
000070 89 60 fc 3d 48 d1 b3 3d 56 7c a5 bd 9a 35 53 3c
       0.123231 0.087801516 -0.08080356 0.012891198

res1.conv1.weight f4 [32, 32, 3, 3]
000000 4b f1 b4 37 ff 49 b7 3a 55 92 3a 3a 96 6e b1 b5
       2.1570033e-05 0.0013983845 0.0007117142 -1.3219712e-06
000010 c6 b9 f3 bb 6f cc 0f 3b fd 58 d7 3c 82 07 5a bb
       -0.0074379174 0.002194192 0.02628755 -0.0033268635
000020 17 e9 25 bd ef c9 30 bd c8 a8 f5 3c 93 09 d0 3a
       -0.040505495 -0.04316133 0.029987708 0.0015871994
000030 d6 1a 5f bd b5 e1 1f 3d 2b 5e 4a 3d 3d f7 c7 bc
       -0.054468952 0.03903361 0.04940621 -0.024409885
000040 47 40 c0 3b f0 ad 0e 3c 31 2b c6 3c f1 0c 10 bd
       0.0058670375 0.008708462 0.024190517 -0.035168592
000050 9a 48 b8 bb d2 4a 06 bd 10 30 89 bb 86 0b 2d 3d
       -0.005623889 -0.032786198 -0.0041866377 0.042247318
000060 c8 e0 94 3d 96 11 ba bc 7d 99 50 bd 35 b3 13 bc
       0.07269436 -0.022713464 -0.050927628 -0.009014894
000070 7e b1 8e bb 93 00 2a bc 40 ff 72 bc 39 14 54 3d
       -0.004354655 -0.0103761135 -0.014831364 0.0517771
000080 ff 13 82 bc 2f 12 79 3c a4 9a 24 bd 83 ec e7 bc
       -0.015878676 0.015202089 -0.04018654 -0.02831102
000090 2e dc dc bc f4 0f 6f 3b e8 70 58 3c c3 e1 27 bc
       -0.026960459 0.0036478015 0.013210513 -0.010246697
0000a0 9a 54 08 bd 2e 2f 47 bd 75 64 8a bc 2c a6 50 3c
       -0.033283807 -0.04862898 -0.016893605 0.012734931
0000b0 0b aa 65 bd ce cc 75 3b 89 5d 94 3a f5 d0 e0 ab
       -0.05607037 0.0037506106 0.001131938 -1.5974155e-12
0000c0 06 ac 2e 3d 20 ba ef bc af 08 56 3a a6 ee 9a bd
       0.042644523 -0.029263556 0.0008164746 -0.0756505
0000d0 de 6b 90 bd ed ca f1 39 11 98 0f 34 30 10 14 34
       -0.07051824 0.00046118294 1.3373234e-07 1.3789463e-07
0000e0 d3 cd 34 38 90 50 20 bd 98 76 b1 3a ef c5 7e bb
       4.3107033e-05 -0.03913933 0.0013539372 -0.0038875302
0000f0 74 6d b9 3a f2 f3 46 bd ff 16 e1 3c a7 b5 60 3c
       0.0014147 -0.048572488 0.027476786 0.013715184
000100 be 16 4a bd a1 aa 4e 3c 51 b0 9a 3c fe d3 14 3c
       -0.049338095 0.012613923 0.018882902 0.009083746
000110 7d a8 93 3b 53 4a ee 3b 54 b9 08 3d 92 e0 33 3d
       0.0045061694 0.0072720437 0.033379868 0.04391534
000120 68 0c 4b 3d 3b 24 cf 3c 33 0a 37 3b 69 66 c3 3a
       0.04957238 0.02528583 0.0027929663 0.001490784
000130 24 89 11 3d 13 f1 40 3d c6 e6 0d 3b 23 d3 83 bd
       0.035531178 0.047104906 0.0021652444 -0.064367555
000140 50 fb 01 ba df 3a ca bc e4 b5 a4 bc c5 e9 db bb
       -0.0004958408 -0.024686275 -0.020106263 -0.006711217
000150 d3 95 03 3b e4 5f 80 bd 45 91 16 3d 51 90 8c bd
       0.0020078316 -0.0626829 0.036759634 -0.06863464
000160 27 d4 66 3c a6 12 44 bc cd c6 30 3c 9a fa 16 3d
       0.014088667 -0.011967337 0.010789585 0.036860086
000170 9c d6 62 3a 5d 92 c8 bc aa 66 10 3c 68 9f 1f 3d
       0.0008653195 -0.024483854 0.0088135395 0.03897038
000180 b8 a7 39 bd 08 a9 ee 3c ba 15 f4 39 00 ee 10 3d
       -0.045325965 0.029133335 0.00046555494 0.035383224
000190 14 37 66 3d 85 a6 4f bc 8e d5 0c 3b 4f c7 db 3c
       0.05620487 -0.012673979 0.0021489593 0.026828436
0001a0 04 17 08 3c 42 0a c1 bc 51 79 80 bb 6f 24 98 bc
       0.008306269 -0.023564462 -0.003920712 -0.01857206
0001b0 78 ef 34 bb 0d 2d cf bc 0b 17 8a 3b e5 b1 af 3c
       -0.0027608555 -0.025290037 0.0042141727 0.021447131
0001c0 f1 72 08 bd 6a 4e 51 3d 63 6d e2 bc ed bf 8f 3b
       -0.03331274 0.051100172 -0.02764005 0.004386893
0001d0 7f 87 02 bd bb 2c c0 3b ba 73 3b bc 12 57 36 bb
       -0.0318675 0.0058647073 -0.011441166 -0.0027822894
0001e0 03 d1 51 bd a5 eb b4 bd 25 f1 84 bc dd 19 ff 3b
       -0.05122472 -0.08834008 -0.016228268 0.0077850656
0001f0 9e 3b 6e 3d eb ef 01 bd 4a c7 49 bb c3 fd 82 3a
       0.058162324 -0.031722944 -0.0030788952 0.000999384
000200 aa 4f 9a bb f1 90 0a bd 34 d9 f8 3c 63 87 29 3c
       -0.0047092037 -0.033829633 0.030377008 0.01034722
000210 10 22 f5 3c 4a f3 58 bd 5a 8f 47 3b 6c b8 a1 3c
       0.029923469 -0.052966394 0.0030450434 0.01974126
000220 9f 1d 1e ba 36 96 9f 3b 4e 25 23 ba 76 6f 7d bd
       -0.00060316356 0.0048702015 -0.00062235154 -0.061873876
000230 41 88 fa 3c 49 ec 90 3d 48 33 67 3d b9 3b c1 3c
       0.030582549 0.07076318 0.05644539 0.023588048
000240 54 b8 14 3c 4d 3f 36 bd fa b8 90 3b 94 0e 5c bd
       0.00907715 -0.044493962 0.004416582 -0.05372484
000250 3e 5b dc bc b6 2c 47 3c 1c d4 ed 3c fc 22 32 bd
       -0.026898976 0.012156656 0.029031806 -0.043490395
000260 7f 42 13 3d 75 63 60 3c 74 0e 31 bd a8 1b f2 3b
       0.035952087 0.013695587 -0.043226674 0.007388551
000270 06 5c 42 bd 05 9d 02 3b 0d 35 84 bc 6b 05 29 3c
       -0.04745104 0.0019930017 -0.016138578 0.010316233
000280 f9 4e 29 bc e7 a7 25 3d de 50 9c 3c 78 e6 77 3c
       -0.01033377 0.040443327 0.01908153 0.015130632
000290 9e c1 af 3c e9 e3 31 bd e3 11 3f bc 21 2c 5f 3c
       0.021454629 -0.043430243 -0.011661979 0.013621361
0002a0 01 98 af 3d 31 36 8d bb 2b 1a aa 3b 90 73 29 bd
       0.08573914 -0.0043094386 0.0051911077 -0.041369975
0002b0 9f eb 47 bd 18 2d 12 3c ab ba 10 bd 55 f9 58 bc
       -0.04880869 0.008921884 -0.03533427 -0.013243039
0002c0 99 6d 0b bd 45 a9 0b 3c 19 ce 8e 3d 39 57 07 bd
       -0.034040067 0.008524244 0.06972904 -0.033042166
0002d0 6d 50 0b bd 3d f3 4a 3c 01 72 de bb c3 25 90 bd
       -0.034012247 0.012387094 -0.0067884927 -0.070384525
0002e0 58 2b 0e bd f6 4d 00 bd dd 95 39 bc bd e3 ac bc
       -0.034709305 -0.03132435 -0.011327234 -0.021104688
0002f0 ed 38 00 bc ff 39 fc bc e6 17 1c 3d ed 90 16 3c
       -0.007826072 -0.030789373 0.03810873 0.009189826
000300 d1 1e 21 3d a8 92 2a 3d 1a aa eb 3c b4 02 fa 3b
       0.03933603 0.04164377 0.028767634 0.007629717
000310 86 c6 f3 3c 9e c0 4b bc 4e c2 5e 3b 32 ee 46 3b
       0.02975775 -0.01243606 0.0033990326 0.0030354378
000320 9e 76 52 2a 3b 54 83 3d 13 e7 ff bc 94 6c 57 b9
       1.86929e-13 0.0641255 -0.031238114 -0.00020544446
000330 f9 d6 85 3d 4f 17 28 bc be f8 57 bd 61 d6 5e 3d
       0.065351434 -0.010259463 -0.052727453 0.054403666
000340 b3 17 de 3b f8 72 c4 b9 fa ab 85 3d 52 51 55 3c
       0.0067777275 -0.00037469692 0.065269426 0.013019877
000350 2b 11 9b bb c9 9a c1 bc 11 6c 52 3d 4c da 23 3d
       -0.004732271 -0.023633378 0.05137259 0.040003106
000360 3d 42 cb 3a 4a 2b f6 bc 05 54 d0 3b 00 8f 97 bd
       0.0015507411 -0.030049939 0.006357672 -0.07400322
000370 89 57 94 bd 64 e2 d0 bc 7f 3c 6f 3d d0 1f fc 3b
       -0.072432585 -0.025498576 0.058407303 0.007694222
000380 bf 7b 9d bd b3 5c 6a bc d7 13 aa bd f9 df 0a bc
       -0.07689618 -0.014304328 -0.083045654 -0.008476251
000390 34 4d a2 3b 6e 9a 13 3d 68 6c 5c bd 14 f8 c8 bc
       0.004953051 0.036035948 -0.05381432 -0.024532355
0003a0 7c 56 c5 3c b5 6d 04 bd 65 92 9a 39 bd ff 8d 3c
       0.02408909 -0.032331187 0.0002948224 0.01733386
0003b0 40 b5 b9 36 f1 86 fd bc 4c 01 5e bd 00 7b f5 3b
       5.53453e-06 -0.030948134 -0.054200456 0.0074914694
0003c0 9c f0 37 bd 27 02 c5 bc 6c 5b db bc 9f 29 62 bd
       -0.044907197 -0.024048878 -0.026776992 -0.055215474
0003d0 66 41 2f 3d 67 ca 90 3b 98 fe 25 bb de 4a 48 bd
       0.04278698 0.0044186595 -0.0025328752 -0.048899524
0003e0 ad 84 9a bc 8c 75 7d 3b ad 84 0d b9 19 08 17 bd
       -0.018862093 0.00386748 -0.00013496233 -0.036872957
0003f0 3e dc c4 3b 9b 85 f0 3b 5b 49 56 ba d6 66 fd bc
       0.0060077 0.0073401458 -0.0008174383 -0.030932825

res1.conv1.bias f4 [32]
000000 82 d8 ef bb dd f6 6e 3c d7 d4 5f bd 9e fd 69 bd
       -0.007319511 0.014585224 -0.05464634 -0.057126634
000010 65 87 d3 3c 3d 62 ce 3b af b5 33 bd 15 bf 28 bc
       0.025821397 0.006298332 -0.04387444 -0.010299464
000020 f4 72 4a 39 25 49 ab 3d 69 58 d8 bc aa a3 6d bc
       0.00019307045 0.083635606 -0.026409345 -0.014504353
000030 a5 03 ec 3c 76 e7 30 3c d9 2a 57 bc c9 41 e9 3c
       0.028810332 0.010797372 -0.013132774 0.028473752
000040 fa 66 b8 ba 18 1b 13 3c 32 9b 32 bb 2c 4a 9b bd
       -0.0014068775 0.008978628 -0.0027253148 -0.075825065
000050 f5 f7 ba 3c 8a 69 81 bd c9 f5 17 bd fe f8 4d bd
       0.022823313 -0.06318958 -0.037099633 -0.050286286
000060 a9 fb 5c 3d ef 84 c2 3b 9a b8 ec 3b 4e 38 34 bd
       0.05395094 0.005936257 0.0072241547 -0.04399901
000070 dc 2f 1e bc 7f 85 ec 3c b8 1b c7 3c 15 17 fd bc
       -0.009654965 0.02887225 0.02430521 -0.030894795

res1.conv2.weight f4 [32, 32, 3, 3]
000000 8b 3f c5 bc 81 3e 57 3c f2 f8 81 bd 53 27 04 3d
       -0.024078151 0.013137461 -0.06346311 0.032264065
000010 4d 7d 10 3d 7e b1 22 bd fc 2b 09 bc 63 54 dd bc
       0.035275746 -0.03972005 -0.008372303 -0.027017778
000020 93 70 24 3d e6 36 31 bc b8 1c 5d 3d c6 fb 42 bb
       0.04014642 -0.010816311 0.053982466 -0.002975212
000030 bf a0 47 3d f0 34 11 3d f9 fc 5c 3d aa 19 b3 3c
       0.048737284 0.035450876 0.05395219 0.021862824
000040 b8 32 1d bd 99 8f 27 3d 44 9c 78 3c 5d 5f 04 3d
       -0.038378447 0.04090843 0.015173975 0.032317508
000050 9b e0 ab 3c 9c e3 13 3d 2f 62 dc 3c 66 e9 19 3d
       0.020981124 0.036105737 0.026902286 0.0375761
000060 8e 40 46 3c ec b2 3f 3d f8 f8 91 3d 9e 1b 39 3d
       0.012100352 0.046801493 0.07127565 0.045192353
000070 58 64 3b bc a6 be bf 3c 7e e9 4c 3d 76 24 07 3d
       -0.011437498 0.023406338 0.050027363 0.032993756
000080 ee 85 9f 3c 01 ad ca bc 50 fd 91 bc d2 7f 9f 3c
       0.019473042 -0.024740698 -0.017820984 0.01947013
000090 20 86 e7 bb ba 4b 97 3d b0 57 f9 bc 5d 07 f3 bc
       -0.0070655495 0.073874906 -0.03043732 -0.029666597
0000a0 eb 0b 92 3d 70 4f 69 bc ea 74 1c bc 6f e5 a4 3b
       0.071311794 -0.014240131 -0.009549359 0.0050322334
0000b0 52 d6 43 bb e9 09 76 bd a3 59 85 3c 58 0a 18 bd
       -0.0029882384 -0.060068045 0.016278094 -0.03711924
0000c0 e3 5c a0 3d c4 53 38 3d 58 80 60 3d ae 72 3a 3d
       0.07830217 0.04500176 0.0548099 0.045519523
0000d0 7c a5 13 bc de a0 1b bd 2c 16 f9 bc dd 56 72 3d
       -0.0090116225 -0.03799521 -0.03040608 0.05916487
0000e0 77 11 0e bd f0 98 b0 3d c4 d2 ab bc 8e f4 7c 3d
       -0.034684625 0.086229205 -0.020974524 0.061756663
0000f0 62 a3 16 3c 2d c4 87 3b 07 49 08 3c 77 26 7b 3c
       0.009194227 0.004143259 0.008318192 0.015328995
000100 50 bb a9 bc 30 5e 82 3d eb 74 3f 3d e0 5d 62 3b
       -0.0207192 0.06365621 0.04674236 0.0034540817
000110 98 b9 66 bd 82 34 79 3d 42 13 c0 bc 72 1c 2d 3d
       -0.05632934 0.06084109 -0.023446683 0.042263456
000120 b1 df 4e bb 8d ae 74 3d fe 4b 20 3d d9 22 c0 3d
       -0.0031566436 0.059736777 0.03913497 0.09381647
000130 8b cb 4e 3c f8 49 40 3c 05 4c 61 bc be f8 57 3d
       0.012621771 0.0117363855 -0.013751035 0.052727453
000140 e0 50 54 bd 5f d4 38 3b b3 9f 18 3d 7c be 6e 3c
       -0.05183494 0.0028202755 0.037261676 0.014571782
000150 71 81 ac bc 1e 5c 91 3d 99 76 6a bc d1 32 08 3b
       -0.021057816 0.07097648 -0.014310502 0.0020782242
000160 8b 62 97 bd 97 12 23 bd 2a 78 c0 bc 9c 9c 55 3d
       -0.073918425 -0.03981265 -0.023494799 0.052151307
000170 ad de 4a 3d bd e6 35 3d 91 21 c2 bc 61 7d 8b 3d
       0.049528766 0.044409502 -0.023697646 0.068110235
000180 2f 70 f9 3c 46 a7 b2 bc 25 30 84 bd 68 ef 5e 3c
       0.030449001 -0.021808278 -0.06454495 0.013606884
000190 59 be 15 bd a6 57 6a bd b8 b1 04 bd 31 4a c9 3a
       -0.036558483 -0.057212494 -0.03239605 0.0015357194
0001a0 ef 56 93 bc b9 d6 de bc 5a fa 5a 3c b6 07 c3 3c
       -0.01798579 -0.027201997 0.0133653525 0.023807388
0001b0 3e 26 de bc f9 d1 38 bc eb 21 06 bc c8 f4 17 bd
       -0.027117845 -0.01128053 -0.008186798 -0.037098676
0001c0 a1 60 91 bd c6 de 23 3d 92 1f 0e bd e5 85 89 3d
       -0.070985086 0.040007375 -0.034698077 0.067149915
0001d0 50 6b 9c 3d ba ff 78 3d 6b 4a 74 3d ee f9 6a bd
       0.07637656 0.060790755 0.059641283 -0.057367258
0001e0 f7 cc 90 bc 99 84 30 3d 8b 27 82 3d 9c 66 91 3c
       -0.01767586 0.043095205 0.063551985 0.017749123
0001f0 11 cc 3f 3d ed c5 18 bd 5d 36 b9 bc 94 31 c8 3c
       0.046825472 -0.03729813 -0.02260893 0.024437703
000200 c5 9e 05 bd 3c 77 69 3a 78 41 ee 3c b0 6d c4 bc
       -0.032622118 0.0008906012 0.029083952 -0.023978084
000210 45 12 21 3d f4 1d 79 bc 3e a1 54 bc 75 8d 0a bb
       0.039324064 -0.015204895 -0.012977896 -0.0021141444
000220 aa 36 fc 3c 67 ac 21 3d fa 57 4f 3c 0c b5 7d bb
       0.030787785 0.039471056 0.012655253 -0.0038712649
000230 72 6c 42 3d 8f 82 0b bd be bd 85 3d 97 b8 8b 3c
       0.047466703 -0.034060057 0.06530331 0.017055793
000240 b1 88 40 3c 2d a0 19 3c 57 2a 71 bd 44 1b 21 bd
       0.01175134 0.009376568 -0.05887827 -0.039332643
000250 39 67 84 bb 84 f3 5f bd 8f c8 81 3d 37 a5 60 bc
       -0.0040406254 -0.054675594 0.06337082 -0.013711265
000260 69 8e 6d bd a9 c5 03 3d 45 93 a8 bc e8 a9 ce bc
       -0.05799714 0.032170925 -0.020578036 -0.025227502
000270 e8 e4 12 bb 32 f9 74 3d c4 2d 4b bc 4a 23 4f 3d
       -0.002241427 0.059807964 -0.012401048 0.050570764
000280 c8 1d a9 bc 63 75 15 3c 15 99 2e bb 6e d9 6e 3c
       -0.020644084 0.009122225 -0.0026641537 0.014578206
000290 b2 5f f9 3c 51 d8 92 bc 0c 0a 00 3d 35 ee 63 bd
       0.030441139 -0.017925413 0.03125958 -0.055647094
0002a0 72 13 6f bc 14 04 6f 3d 3d 1a ac 3c 30 c1 b4 3b
       -0.0145920385 0.0583535 0.021008605 0.005516194
0002b0 08 7f 13 bc 2f 62 7f bd 35 9e 02 3d 8f 76 6a bc
       -0.009002455 -0.062349495 0.03188916 -0.014310493
0002c0 20 b1 a1 bb f5 24 b0 3c 1e 01 85 3c 1a 2a 91 3d
       -0.004934445 0.021501997 0.016235884 0.07088108
0002d0 99 7d 92 3d c7 54 1c bd 28 8b 74 3d e0 4e 42 bd
       0.07152862 -0.038166787 0.059703022 -0.047438502
0002e0 18 a7 c6 3c c9 64 ca 39 b2 b0 84 3d 88 55 db 3c
       0.024249598 0.00038603533 0.064790145 0.026774183
0002f0 ce e4 d2 3d cb 79 1e bc 14 48 22 bd c7 c1 46 3d
       0.10297547 -0.009672592 -0.03961952 0.048524644
000300 c4 48 1f bd 7b 85 00 3e 78 e5 01 3d e4 d6 2d 3c
       -0.038887754 0.12550919 0.03171298 0.010610316
000310 4c 6d a4 3a e5 39 06 3d a5 5b 45 3d 7a d0 61 bd
       0.001254478 0.032770056 0.048183102 -0.05513046
000320 62 6c 3a b8 a2 02 b7 3d 31 6f 99 3d 4d c1 be 3c
       -4.4446795e-05 0.08936049 0.07491911 0.023285532
000330 f7 b5 d1 bc 5b 49 2b 3d be c9 98 bd 41 7d 7a 3d
       -0.025599463 0.041818004 -0.07460354 0.061154608
000340 16 31 eb bb ca 13 93 bc 21 5b 83 3d 6a 31 a9 bd
       -0.0071774824 -0.017953772 0.06413866 -0.08261378
000350 fa d9 f3 3c cd ee a9 3b b3 df 06 bd f2 1b 82 bd
       0.029767025 0.005185938 -0.03292818 -0.063529864
000360 85 34 f5 3b 03 ba 5c bd 92 62 a9 3c cc fc 38 bd
       0.0074830675 -0.053888332 0.020676885 -0.04516296
000370 44 69 0d 3d f5 08 b8 3c e2 da 51 3d d7 d0 f3 3c
       0.034524217 0.022465209 0.051234134 0.029762669
000380 9c 4f 48 3b ec de 1b 3d a5 d7 75 3d 2d 3d d9 39
       0.003056503 0.03805439 0.060020108 0.00041435045
000390 97 02 6e bc fd c0 85 3d 07 e0 fb 3d a4 5d 85 3d
       -0.014526985 0.0653095 0.12298589 0.06512001
0003a0 56 1b a3 3d b3 af 31 bd 49 ed a0 3d 92 91 3a 3d
       0.07964198 -0.04338045 0.078577586 0.045548983
0003b0 39 58 c1 bc 23 05 1c bd 6f d5 74 3c b2 c1 85 bd
       -0.023601638 -0.038090836 0.014943465 -0.06531085
0003c0 13 1a c9 bc 8c c5 a7 b8 54 b5 02 bd 2b cf 71 bc
       -0.024548566 -7.9999765e-05 -0.03191121 -0.014758865
0003d0 2d ef 8e 3c 2d 9e fa bc 98 fe ec bd b0 5b 52 3d
       0.017448032 -0.030593002 -0.115719974 0.05135697
0003e0 b9 cb 43 3d d8 8f 89 3d 4e 4f eb 3b 5e 9d fc 3c
       0.047801707 0.06716889 0.0071810847 0.030836757
0003f0 73 04 ca bc 3c a1 d5 bd 07 94 d2 3c 2e 41 c3 bd
       -0.024660325 -0.10431144 0.02570535 -0.095339164

res1.conv2.bias f4 [32]
000000 c1 02 03 bc 5c e1 5a 3c 5b cf 72 bb 3a 19 86 3c
       -0.007996262 0.013359394 -0.0037049863 0.01636945
000010 cf 29 97 bd 10 5e 98 bc 27 f0 04 3c 0f 2d c4 bc
       -0.07381021 -0.01859954 0.008113897 -0.023947267
000020 46 cc 02 bd 3a ba 9f 3c b0 ed cd 3c f5 1d b2 bc
       -0.03193309 0.01949798 0.025137752 -0.0217428
000030 c7 df 17 3c 23 61 a1 3c 8f 84 d4 3c 0e dc dd 3c
       0.009269661 0.019699639 0.025942115 0.02708247
000040 a7 85 da bc cb 1a 29 bd 20 3c 01 bd 5b ac 40 bd
       -0.026675059 -0.041285317 -0.03155148 -0.04703937
000050 ed 1b 97 bc eb 9b d0 bc bf 77 2a 3d 1a 56 de bc
       -0.018445933 -0.025464972 0.041618105 -0.027140666
000060 7b d1 97 3c 52 ed e7 bc 75 de f0 3c d0 86 bd bc
       0.018532505 -0.028311405 0.02940295 -0.023135573
000070 12 37 4f bc bb 57 78 3c 7a ff 64 bd 95 4b 1b bd
       -0.012647407 0.015157635 -0.055907704 -0.037913878

res2.conv1.weight f4 [32, 32, 3, 3]
000000 82 5e da 3c ea e2 a6 3c 26 d3 e2 bb 0d 3c 9b 3c
       0.026656393 0.020371873 -0.0069221435 0.018949533
000010 f2 8d 8b 3d c1 a2 03 bd cc df ab 3d b1 cb 77 bd
       0.06814183 -0.032137636 0.08392295 -0.06049699
000020 6b 72 72 3c 9e 86 53 bd 45 c2 82 3c f7 8d 14 bb
       0.014797787 -0.051642053 0.015961776 -0.0022667625
000030 b7 99 10 bd 40 ce 0f 3d fb ff 82 39 11 5c 4d bd
       -0.035302844 0.035108805 0.00024986253 -0.05013663
000040 87 45 00 be 23 5f 1e bc 44 89 f4 3c cd e7 b6 3b
       -0.12526523 -0.009666237 0.02985061 0.005581832
000050 f5 29 ba 3d 38 2d f2 bc a7 e5 3e bc 49 f0 84 bc
       0.09090034 -0.029562578 -0.011651433 -0.016227858
000060 1e 22 52 3d 96 26 25 3c d6 b6 69 3c 12 a9 56 3c
       0.051302068 0.01008 0.014264783 0.013101833
000070 f6 d3 50 3c 39 f1 94 bc a6 7b 1e 3d be 56 65 bd
       0.012745848 -0.01818143 0.03869214 -0.055990927
000080 be 59 16 3c 15 ec 7d bc 27 f1 1f 3d e8 0c 83 bc
       0.00917667 -0.015498181 0.03904834 -0.015997365
000090 06 7d 41 bc 15 ee 99 3c 1e 1a 7d bd 19 6a 0b bc
       -0.011809593 0.018790284 -0.061792485 -0.008509182
0000a0 b5 d5 1d bd 1a b4 9c bd 84 26 c4 3d b5 92 a9 bc
       -0.038533885 -0.07651539 0.09577659 -0.020699838
0000b0 99 c9 90 3d 46 a1 24 bd c4 35 e8 3c 05 5d 66 bd
       0.07069702 -0.040192865 0.02834595 -0.056241054
0000c0 fc 95 32 bd 72 e0 28 bd 02 88 96 3d 2b ab be 3b
       -0.043600067 -0.041229673 0.0735016 0.0058187447
0000d0 0a fd 80 bb c0 ba bf bc 4b 0a e3 bb a3 6a 32 bd
       -0.0039364146 -0.023404479 -0.0069287173 -0.043558728
0000e0 21 0b b8 3d e2 24 5e bd 85 d4 14 bd f7 2b 01 bd
       0.08986498 -0.054234393 -0.036335487 -0.03153607
0000f0 9c 20 5f bd 2c 9c 62 3d 15 64 de 3c 20 78 1a 3c
       -0.054474458 0.05532472 0.027147332 0.009428054
000100 56 c4 a9 bc 48 41 ef 3c 52 aa 80 bc cf 29 89 3d
       -0.020723503 0.029205933 -0.015706215 0.066974275
000110 e0 b0 05 bd 8e 8b 01 3d cc 1f 23 bd f3 a5 33 bd
       -0.032639384 0.03162723 -0.039825246 -0.043859433
000120 75 a2 c7 bc cc 8e d2 3d 7d 90 2d 3c 1f cc 2f bc
       -0.024369458 0.102811426 0.010593531 -0.010729819
000130 69 11 8e 3c e5 62 83 3d 5f 24 44 3d 9f 54 fa bc
       0.017342286 0.06415347 0.04788625 -0.030557929
000140 ad 84 2c 3c ab 75 64 bc bb 0f b9 b9 96 c9 28 3d
       0.010529679 -0.01394407 -0.0003529767 0.041207872
000150 f2 6d 14 bd ee a2 36 3d e3 6b 8d bc 22 54 2d 3d
       -0.036237665 0.044588976 -0.017263358 0.042316563
000160 30 66 b0 bd 07 03 7a bd 98 6d 8e 3c 72 6d ff bc
       -0.08613241 -0.061038043 0.017386243 -0.031180117
000170 4f 46 38 bd 40 6c bc 3d 25 07 ec 3c 5c 4d 08 3d
       -0.044988927 0.092003345 0.028812 0.0332769
000180 cd 18 18 bd 6c 6b 9d 3d 7a 37 09 bd 63 10 2a 3d
       -0.037133027 0.07686505 -0.033500172 0.041519534
000190 bb 18 60 3d 5f 3a 56 3c e3 df 96 3d 2a a6 3d 3d
       0.054711085 0.01307544 0.07366922 0.046301045
0001a0 ec ee 80 bc 1d 96 df bc f7 bf 16 bd 67 f0 5c 3c
       -0.015738927 -0.02729326 -0.036804166 0.013485051
0001b0 3d de 82 ba 03 2a ce bc b2 4a 59 3d 01 56 94 bc
       -0.0009984445 -0.025166517 0.05304975 -0.018107416
0001c0 fe d2 15 3d 16 38 1b bd a5 29 29 3e ae b3 a8 bd
       0.03657817 -0.037895285 0.16519792 -0.08237396
0001d0 97 9a f5 bc 09 b8 d5 3b 3e d9 8b bc 52 fd 23 bc
       -0.02998094 0.006522183 -0.017071363 -0.010009127
0001e0 70 da 20 3d 76 8d 60 3d b0 2f 3c bd 05 d9 b3 bc
       0.03927082 0.054822408 -0.045943916 -0.021954069
0001f0 51 f0 96 3b c8 12 c5 3c 4b 32 5c bc 60 0a 83 3d
       0.0046062847 0.024056807 -0.013439725 0.06398463
000200 5b 3c 41 bd 6f 34 66 3d a4 3e d1 bd 00 36 9e 3d
       -0.0471767 0.05620235 -0.10217026 0.077251434
000210 44 c1 64 bc 6a dd 02 bd 40 b9 46 bd cc b8 ce 3c
       -0.013962094 -0.03194944 -0.048516512 0.025234602
000220 7c a8 a1 3c 4a af 6b 3d 8c f2 49 bd b9 78 37 3d
       0.01973366 0.057540216 -0.049303576 0.044792864
000230 6f 75 4b bd e2 11 a5 3c 0f aa 89 bc 0f 14 df bc
       -0.04967254 0.020150129 -0.016804723 -0.027231244
000240 ee 36 be 3c ae 60 3e 3c 36 d3 c8 bc 75 69 7a 3d
       0.023219552 0.01161973 -0.024514776 0.061135728
000250 4a ef 3e 3d d5 5b dd 3c 92 1b 93 3d 2f 94 79 3d
       0.046614923 0.027021328 0.07182993 0.060932335
000260 c7 ce 3a 3d ca a1 89 3d 99 7a 54 bd 0a 4e 5b bc
       0.045607354 0.06720312 -0.05187473 -0.013385305
000270 ae e6 7d bd 7a f8 10 3d fd 9f 74 3c a0 c4 5a bc
       -0.06198757 0.035393216 0.014930722 -0.013352543
000280 47 c7 e0 bc 14 0e bc 3b 82 f5 80 bd 4e 65 c0 bc
       -0.027438773 0.005738983 -0.06296827 -0.023485806
000290 12 60 7a 3d ad 37 19 bd 74 40 47 bd 1e 3a ae 3c
       0.061126776 -0.037406612 -0.04864545 0.021267947
0002a0 84 a8 01 bd f9 b7 50 3c ba 93 66 bd 68 07 01 3d
       -0.03165485 0.012739175 -0.056293227 0.031501204
0002b0 98 2a a6 3d d6 b6 a6 bc e2 72 31 3d 26 0f e0 bc
       0.08113593 -0.020350855 0.04332245 -0.027350973
0002c0 51 79 05 3d 1f 1e 0a bd 8c b8 1a 3d f0 ae 3e bd
       0.0325864 -0.033720132 0.037773654 -0.046553552
0002d0 f2 32 19 3c 4b 9d 1e 3d 9b 79 b0 39 ce 11 8a 3c
       0.009350525 0.038724225 0.0003365994 0.016854193
0002e0 d2 eb ca 3d 74 c7 ae bb 55 75 e8 bc 00 b7 11 bc
       0.099082604 -0.0053338353 -0.02837626 -0.008893728
0002f0 90 fa af 3c dc e8 35 bd 00 8f d1 3b 04 77 dc bc
       0.021481782 -0.044411525 0.0063952208 -0.02691222
000300 29 3c 87 3a 5b fc 64 3c ed a9 8b bd c9 bf 2d bb
       0.0010317612 0.013976182 -0.0681952 -0.0026512018
000310 80 14 50 bc c1 97 0a bd 57 98 34 bd 3f 2c 65 bc
       -0.0127002 -0.03383613 -0.044090595 -0.0139876
000320 bb e0 80 bd 0b a3 70 3d 25 cc b9 3b a6 dd dd b9
       -0.06292864 0.05874924 0.005670088 -0.00042317546
000330 24 78 b7 bb 5c 48 0c bd 9b 4e bd 3c ab b8 da 3a
       -0.0055990387 -0.034248695 0.023108771 0.0016687115
000340 fa 8d f0 bc 67 92 70 3d 19 ab 88 bb 8e 6e 5c 3d
       -0.029364575 0.05873337 -0.004170787 0.05381637
000350 c8 8b 99 bc 4f 9c 04 bd 9a 5a 54 3d 58 da 7a bd
       -0.01874341 -0.03237563 0.051844217 -0.061243385
000360 21 00 f9 bc 90 41 95 3d 05 be 04 3c 6c c4 7a bd
       -0.03039557 0.07287896 0.008101945 -0.06122248
000370 e2 d7 39 3c e3 aa bc bd 19 a0 01 3d e6 5f fc bb
       0.011342974 -0.092122816 0.03164682 -0.0077018617
000380 cc 1a da b9 07 95 29 3d 77 31 4c bc a5 0e 3f 39
       -0.00041600165 0.04140189 -0.012462965 0.00018220635
000390 ba db 53 bd 88 c6 02 bd a0 0a 21 bd 47 a9 09 3c
       -0.05172322 -0.031927615 -0.039316773 0.008402175
0003a0 90 79 05 3c 49 fb 4f bd 07 57 d8 bc 92 2e 95 3c
       0.008146659 -0.050776754 -0.026408685 0.018210683
0003b0 b3 66 c6 3b 9c c4 6b 3d 7d b2 5f 3d 47 95 8e bd
       0.006054723 0.05756055 0.05461358 -0.06962066
0003c0 cb 5f 21 bd a7 b4 86 bb 38 89 c5 bc a2 36 63 bd
       -0.039397996 -0.004110891 -0.024113283 -0.055472024
0003d0 68 da c5 bc 0f 18 49 3c 91 b8 45 3c c7 55 97 bc
       -0.024151996 0.012273802 0.01206793 -0.018473519
0003e0 b9 a2 e4 bc ad 5e be bc f3 d0 16 bc 0d 58 f8 3c
       -0.027909623 -0.023238504 -0.009205091 0.030315423
0003f0 49 2d da bb 76 b6 ac bc f5 d3 ca 3c 06 ce 2c 3b
       -0.0066582304 -0.021083098 0.024759272 0.0026367917

res2.conv1.bias f4 [32]
000000 34 39 8d bd 7c ff 1e 3c 6c 91 c0 3c ba 04 b7 bc
       -0.06895676 0.009704467 0.023506843 -0.022341121
000010 da 52 54 bc 79 23 55 bc 62 ff 72 bd e8 2d 96 bd
       -0.0129592065 -0.013008946 -0.059325583 -0.07332975
000020 29 56 1f 3c c2 cc 35 bc b0 a9 d7 3c 74 24 da 3c
       0.009725132 -0.011096181 0.02632603 0.02662871
000030 00 8c 64 3d bf 6d 18 3d 1c af 6c 3d 9a 1a f8 bc
       0.055797577 0.037214037 0.057784185 -0.030286122
000040 a9 e8 1b 3d 86 f0 96 bb cb 95 09 bd dc 49 03 bb
       0.03806368 -0.0046063093 -0.03359012 -0.0020033037
000050 aa b7 d3 3b d3 d1 3c bd 6f 95 18 bc ec 8e b0 3c
       0.0064611034 -0.04609854 -0.0093129715 0.021552525
000060 3e 9b 24 bc aa 8e 2f 3d fc 40 42 bd f3 6d 1d bd
       -0.010046778 0.042860664 -0.047425255 -0.038434934
000070 fd e4 a9 bc 7c 08 01 3d 12 e1 0f bd 3f a8 07 3c
       -0.020739073 0.031502232 -0.035126753 0.008279859

res2.conv2.weight f4 [32, 32, 3, 3]
000000 91 7e 44 3d 59 0d 4d bc 40 c8 78 3b 7b 2e b7 bd
       0.047972266 -0.012515389 0.0037961155 -0.08944412
000010 87 47 3e 3c 6c 7c 1e bc aa 6b 24 3d fa 5d ef 3b
       0.011613733 -0.009673219 0.04014174 0.007304904
000020 4c dd a5 3d a9 aa 35 bc 8a 4c 5e bd 91 e1 c3 3d
       0.0809885 -0.011088052 -0.054272212 0.09564508
000030 9a 6d db 3d f0 7a a7 3d 24 98 3d 3c 2b 02 20 3d
       0.10714264 0.08177745 0.011571918 0.039064568
000040 7b bd ef bc 66 1d 8f 3d 0d aa a9 3c cc 68 86 bd
       -0.029265156 0.06988029 0.02071097 -0.06562957
000050 3a 6a 09 bd fc a4 df bc be e3 02 3e 20 ee c5 3b
       -0.03354857 -0.02730035 0.12782189 0.0060403496
000060 c9 eb 25 bd 0a a3 f0 3c 43 8e 10 bc 98 09 c1 bb
       -0.040508065 0.029374618 -0.00882298 -0.0058910362
000070 8c 68 bd bd 06 d7 be 3c 13 fa 94 bd 41 47 5a 3d
       -0.09248456 0.02329589 -0.0727426 0.05329061
000080 c2 04 24 bb 6c e4 b1 ba a4 0a 86 3d d8 f7 5f 3d
       -0.002502725 -0.0013572103 0.06544998 0.05467972
000090 13 97 9c 3c 63 54 0c 3d 4f ae 7f 3c e6 f0 ae bb
       0.019115007 0.034260165 0.015605523 -0.005338776
0000a0 a9 fa 24 bd 74 9d e9 3c 2d 20 e9 bc 7c 00 8b bd
       -0.04027811 0.028517462 -0.028457725 -0.06787202
0000b0 66 01 8f bc b4 d2 bb 3d 82 09 f9 bc ad b8 d2 3c
       -0.017456722 0.09171048 -0.030400041 0.025722826
0000c0 4b df 57 3d af 76 47 3c 71 0e 44 bd 06 2e c3 bb
       0.052703183 0.0121742925 -0.047865335 -0.005956414
0000d0 55 46 35 bd 28 18 b4 3d 27 5d 7c 3d c8 0e 7e bc
       -0.044256527 0.0879367 0.061612274 -0.015506454
0000e0 70 0f 60 bd e6 85 73 3c c1 c2 03 bc 9f e6 a4 3c
       -0.054702222 0.014863467 -0.008042038 0.0201295
0000f0 0d 5a 34 3d 0b c7 90 3c 26 55 4f 3d 47 6a b4 b9
       0.04403119 0.017673036 0.050618313 -0.00034411458
000100 c1 1c a7 bd 64 48 c6 bc 65 7c 58 bd 6b 94 05 3d
       -0.08159781 -0.02420444 -0.052853007 0.032612246
000110 a0 56 07 3c 90 e2 2d 3d 70 c1 ab 39 fa 12 bc bc
       0.008260399 0.042452395 0.00032759784 -0.022958267
000120 0e da 4d bd 14 65 ed bc 52 ed 9d ba a2 ce c8 bb
       -0.05025678 -0.028978862 -0.0012048876 -0.006128148
000130 67 c9 d5 bc ed 21 1b 3b ec 01 b6 3d 29 f5 71 bd
       -0.026097013 0.0023671344 0.08887085 -0.059071694
000140 ed fc bf bc 56 11 b0 3d 7f b0 36 3d 0e a3 10 bd
       -0.023436034 0.085970566 0.044601914 -0.03531175
000150 3f 48 77 bb f2 45 0d bb 07 ec fd bc 7d 60 84 3d
       -0.003773227 -0.0021556583 -0.030996336 0.06463716
000160 ff 65 06 bd 6b 7b 76 3a ce c0 57 3d 2f a1 34 3d
       -0.032812115 0.0009402546 0.052674107 0.04409903
000170 1c e6 07 bc 48 06 07 3c 6f 41 af 3c 1a 76 a6 3c
       -0.008294608 0.008241244 0.021393506 0.020319987
000180 d8 ac 31 bb 6f 69 13 3b 22 2f d1 3c 22 ff 8b bc
       -0.002711108 0.0022493263 0.02553517 -0.01708943
000190 ba b4 f2 bc 22 40 76 3c 09 0e 8a bc 89 47 31 bd
       -0.029627193 0.015029939 -0.016852396 -0.043281112
0001a0 70 0c 72 3d de c3 70 3c 75 4d 38 3d 34 64 35 bd
       0.059093893 0.014695136 0.044995744 -0.044285014
0001b0 81 1c 52 bd b1 92 05 3e 0f d5 77 3d 4f c1 a0 3d
       -0.051296715 0.1304424 0.060505923 0.07849371
0001c0 a4 f0 12 3d a2 cd 52 3b 39 69 55 3d 25 22 8a bb
       0.035874024 0.0032166024 0.0521023 -0.004215496
0001d0 99 b7 61 bd 74 ff 0c bc 2e 74 e7 3c c9 9f 31 bd
       -0.055106733 -0.008605827 0.028253641 -0.043365274
0001e0 30 2e 9f bc f7 dd 46 3d 76 ba 02 3d f6 cf 4d 3d
       -0.019431204 0.048551526 0.031916104 0.050247155
0001f0 b0 78 26 bd 63 b4 a8 3c 80 be 00 ba 2b a1 54 bd
       -0.04064244 0.020593828 -0.0004911199 -0.051911514
000200 16 62 8f 3d c1 ea 1c 3c 7e c5 b7 3d d8 43 05 3d
       0.0700113 0.009577454 0.089732155 0.032535404
000210 9e a2 17 bb e3 94 00 bd 83 a3 cd bc fa 0d cd bd
       -0.00231377 -0.03139199 -0.025102383 -0.100124314
000220 e3 b7 48 bc 14 98 b9 bb b5 c4 8d 3d 40 2d d1 bd
       -0.012250873 -0.005663881 0.069222845 -0.10213709
000230 4b 29 de 3d d1 51 16 3d d5 d2 05 3d af 46 37 3d
       0.1084772 0.03669912 0.03267177 0.044745144
000240 05 34 3b 3d 7a 02 9f 3c 39 b7 21 3b 9b 41 5a 3c
       0.045703907 0.01941036 0.002467586 0.013321306
000250 d0 86 5d bc fc fc 64 bd 9e dc 3a bc c4 46 eb 3c
       -0.013520911 -0.055905327 -0.011405138 0.028720267
000260 2a b7 05 bc 13 6a 94 bc 19 9f b6 3d bd d5 84 3d
       -0.0081613455 -0.018116986 0.08917064 0.0648608
000270 e2 d9 9e bb a3 82 68 bd 3d f5 43 3d 35 f7 eb 3c
       -0.004847751 -0.05676521 0.0478413 0.028804401
000280 cb cd d0 bc de c3 7b bc df dc 2a 3c cf 5b 42 3d
       -0.025488755 -0.015366523 0.010428636 0.047450837
000290 78 a5 b3 3c ce cb 37 3d 90 63 1a 3d a0 81 99 3d
       0.021929488 0.044872098 0.037692606 0.07495427
0002a0 89 e2 7a 3d b1 30 d4 3c 30 be fb bc 5b ab 1a 3c
       0.061251197 0.025902124 -0.030730337 0.009440268
0002b0 ca 35 79 3c 47 48 d6 bc 2c 6b 5f 3d 7e 79 ad 3d
       0.015210578 -0.026157511 0.054545566 0.084704384
0002c0 1d cf 58 bd 49 41 31 3c 2e 6c 88 3b 53 3e 56 bc
       -0.052931894 0.010818788 0.0041632866 -0.013076383
0002d0 10 98 80 bd ca fc 8b 3c 34 c4 db bd 17 83 23 bc
       -0.062790036 0.017088313 -0.10730782 -0.009979985
0002e0 0a 66 93 3b b2 96 e8 bd d4 0b dd 3c 16 fb 43 bb
       0.004498248 -0.11356868 0.02698318 -0.0029904298
0002f0 95 ed bd bb 74 51 dc 3c 60 84 61 bd 55 0c 62 3b
       -0.0057961443 0.026894309 -0.055057883 0.0034492214
000300 80 6c 90 3d 8c ee 76 3a e3 e6 77 bc 12 d6 ad bc
       0.07051945 0.00094197015 -0.015130731 -0.02122024
000310 b4 07 02 bd c6 1f e2 3c 03 d9 ef 3b 80 fa 44 3d
       -0.031745628 0.027603041 0.007319571 0.048090458
000320 5d 72 7e 3d 84 72 41 3d 4e 42 d1 3d 9a 79 42 3b
       0.062120784 0.04722835 0.10217725 0.002967453
000330 2b 0d a5 bc 35 e9 ca bc 34 c7 23 bb 85 0b 5c 3d
       -0.02014788 -0.024769405 -0.002499056 0.053721923
000340 94 cb 85 bc bf d6 57 3a fb e4 22 3d 71 9a 36 3c
       -0.016332425 0.0008233599 0.039769154 0.01114522
000350 03 bf 0e 3c 74 f1 d5 3c 06 ae d4 3c 83 4c ca bc
       0.008712533 0.02611611 0.025961887 -0.024694687
000360 c1 4b ed ba 40 65 a6 bd ca 1c d5 3c 5f 2b c0 3b
       -0.0018104241 -0.08124781 0.026014704 0.0058645452
000370 d8 e4 11 bd 90 03 a7 38 aa 49 9c 3c c5 37 2f 3d
       -0.035618633 7.963844e-05 0.019078095 0.042777795
000380 26 ea 96 3d 92 a0 e3 ba 9c bf 82 bd c0 b1 a6 3d
       0.07368879 -0.0017366579 -0.06384203 0.08139372
000390 ba af fb bc e6 09 19 3e 04 80 eb 3c 68 b4 13 bb
       -0.030723441 0.14945182 0.028747566 -0.002253795
0003a0 1e 81 a3 bd bc 05 11 3c d5 00 63 bc f5 76 94 bc
       -0.079836115 0.008851465 -0.013855179 -0.01812313
0003b0 09 4c 75 3c 09 ba 94 3a a4 01 0c 3d b5 5e 85 3c
       0.0149717415 0.0011346947 0.034181252 0.016280511
0003c0 12 d7 3a 3c 8b 22 21 3d 2e d4 fb 3c 56 18 4c 3c
       0.011403816 0.039339583 0.030740824 0.012456974
0003d0 9c 98 ce 3d 36 28 47 3c 00 c5 04 3d c9 b4 8b bd
       0.10087702 0.012155583 0.032414436 -0.068215914
0003e0 e3 25 ad bc c9 81 26 bd e5 63 fe 3b 48 c1 1b 3c
       -0.02113623 -0.040651117 0.007763373 0.009506531
0003f0 6b 87 32 3d ea 37 1d 3d 2a 3e 60 3d e0 24 5f bd
       0.043586176 0.038383402 0.054746784 -0.054478526

res2.conv2.bias f4 [32]
000000 17 f1 35 3d 7d c8 d1 3c 2e be cf bc fb bd 92 3d
       0.044419374 0.025608296 -0.02535924 0.07165142
000010 c3 01 70 bd c7 5c ad 3c f7 ee 0a bd 83 d8 18 bd
       -0.05859543 0.021162404 -0.0339193 -0.037315857
000020 9d 79 0d 3d 11 c8 50 bb 3e d3 18 3d 2d 76 35 3d
       0.034539808 -0.003185753 0.03731083 0.044302154
000030 7e 14 92 bb b1 90 ae bc e1 66 53 3d 71 c4 4b bd
       -0.0044580093 -0.021309229 0.051611785 -0.049747888
000040 11 0d 0c 3d f4 15 2f bc 45 17 0e bc 7c 00 96 bc
       0.03419215 -0.010686386 -0.00867254 -0.018310778
000050 6d ed 4c 3c aa 1b f7 bc c1 b8 1d 3d 0b f5 4e 3b
       0.012507779 -0.030164558 0.038506273 0.0031579162
000060 81 fb 3a bd d6 9f 96 bc 06 4f 3d bd 05 fe d3 3c
       -0.04565001 -0.018386763 -0.04621794 0.025877962
000070 05 87 ad bb 96 af 9a 3c d6 c2 16 bd f6 ad e9 bb
       -0.0052956366 0.018882554 -0.036806904 -0.0071313335

res3.conv1.weight f4 [32, 32, 3, 3]
000000 c3 69 cc bc f3 cc f8 bc 18 1a bb 3c ae d3 33 3d
       -0.024952775 -0.030371165 0.02283959 0.043903045
000010 eb d5 8e bc bb 27 f5 3b 29 eb 72 3c 6b 1f e0 bc
       -0.017435988 0.007481543 0.014826574 -0.027358731
000020 7f 92 ad 3d b6 2c 3b 3c e8 3b ea 3c 3d c8 63 3c
       0.084752075 0.011424234 0.028593019 0.013902721
000030 f5 44 80 3d 2a 26 5f 3c 4c 27 5b 3c 5f a0 27 bd
       0.062631525 0.013619939 0.013376068 -0.040924426
000040 e5 fd d3 3d 70 e1 b9 3c 41 57 bd ba 71 44 a4 3c
       0.10351161 0.022690505 -0.0014445559 0.020052167
000050 59 31 d7 3d 2c db 9f bc 4d 6e 52 3d 96 6a 9c 3c
       0.10507459 -0.019513689 0.051374722 0.019093793
000060 19 95 a4 3b 1d 18 c1 3b 09 03 10 3d e0 82 59 bc
       0.0050226566 0.005892767 0.035159145 -0.013275832
000070 b8 ee 29 bd 9f 79 6e bd 0d ee 97 3c ce 0a 99 3d
       -0.041487426 -0.058221456 0.018546129 0.07472764
000080 8c 36 43 3c 59 3e c7 bc 80 14 82 3d c5 c3 12 3b
       0.01191486 -0.024321722 0.06351566 0.002239452
000090 a2 30 03 3d 4e 2a a3 bd fd 18 60 3d b6 34 dd 3b
       0.0320288 -0.07967053 0.05471133 0.0067506684
0000a0 75 6c 80 3c 10 b3 d9 3b 27 28 bc bb b5 20 30 3d
       0.015676716 0.0066436604 -0.005742091 0.04299994
0000b0 1f 76 22 3d 7c 4d 2b 3d ce d4 52 3d 79 b7 a2 bd
       0.03966343 0.04182194 0.051472478 -0.07945151
0000c0 9e d0 6c 3b 2a 44 44 bc 40 00 8d bd 06 7e 24 3d
       0.0036135088 -0.011979142 -0.06884813 0.040159248
0000d0 76 5b cc 3c 71 e5 5b 3d 1f eb 4d 3d ec 87 6e 3d
       0.024945956 0.05368561 0.050273057 0.058235094
0000e0 c6 d0 84 bc 91 24 75 3d 7a 5b b1 3c 5c 5a 9d 3d
       -0.016212832 0.059849326 0.021650065 0.0768325
0000f0 11 b0 9c bc 65 66 3e bd 55 ab 1e bd 9c 4d 4d 3d
       -0.019126924 -0.04648437 -0.038737614 0.050122842
000100 d4 87 1a 3d ce 7c a0 3b 65 a0 36 3d 99 c3 8f 3b
       0.037727192 0.0048976904 0.044586558 0.0043873307
000110 dd ad 5e 3d d7 dd 02 3b 66 9b 5f bd b0 44 83 3d
       0.054365028 0.0019968653 -0.05459156 0.064095855
000120 47 d1 2b bc 38 47 cc 3d 9e 18 06 be ef b8 eb bc
       -0.010486907 0.099745214 -0.13095328 -0.028774707
000130 0a 78 e7 bc 4e 8c 62 3d a0 a2 8e bb 47 f8 80 3c
       -0.028255481 0.055309586 -0.0043528825 0.015743388
000140 ab 45 16 bc b7 ce 81 3d f5 43 03 bd 03 0f 00 3d
       -0.009171884 0.06338256 -0.03204723 0.031264316
000150 08 45 bf bc dd 25 e6 3c 82 88 83 3d fa f5 8e 3d
       -0.023348346 0.028094226 0.06422521 0.0698051
000160 a3 02 b6 3c a5 a4 9d 3d e6 f2 fb bb 24 16 38 bd
       0.022218054 0.07697419 -0.007688868 -0.04494299
000170 79 76 b0 bc 1d 9f f2 3c 43 86 73 bd 60 35 11 3d
       -0.021540867 0.029616887 -0.059454214 0.035451293
000180 d9 64 e3 bb 81 05 8b bd 50 2a 11 3d 60 5e ec 3a
       -0.006939512 -0.06788159 0.035440743 0.0018033497
000190 7f 0b b9 3c 04 ab 1b bc 16 24 0a bd 95 7e a1 3b
       0.02258849 -0.0095012225 -0.03372582 0.00492842
0001a0 20 93 8a 3d d2 61 03 3a 6e b3 a5 3c 6f 37 a3 3c
       0.06766343 0.000501183 0.02022716 0.019923894
0001b0 ab 48 1c bc bf 74 92 3d 56 4a 0e bd 7c e7 38 3c
       -0.00953881 0.07151174 -0.03473886 0.011285659
0001c0 ea c0 62 3d a2 f7 73 bc 67 03 bd bd e8 6d a6 3d
       0.05535976 -0.014890583 -0.092291646 0.08126432
0001d0 f6 fd 37 3d c5 8c 1e bd dc 86 5a bc fc ad 05 bd
       0.04491993 -0.038708467 -0.013337817 -0.032636628
0001e0 6c 55 82 3d 45 fa aa bc b7 e6 8c bd 66 f1 1d 3c
       0.06363949 -0.020871291 -0.06879943 0.009640073
0001f0 52 e3 64 bd da f7 11 3c 20 3f 6f 3d b8 2c 67 3d
       -0.055880852 0.00890919 0.05840981 0.05643913
000200 e7 6f d4 bd 28 fe 4c bd 0a 8c 4e 3d fc 04 5d 3d
       -0.10372906 -0.05004707 0.05042652 0.05395983
000210 91 f6 80 bd d9 e0 da bc ba 47 76 3d 6a 29 8f 3d
       -0.06297029 -0.026718544 0.060126998 0.06990321
000220 d1 49 41 bd b5 94 3a 3c 71 f4 e0 3c 60 11 ea bc
       -0.047189537 0.011387994 0.027460309 -0.028572738
000230 41 2c 86 3c 5c 7b ea 3c 9f 59 a3 bc 9b 7b 99 bb
       0.016378524 0.028623275 -0.019940196 -0.0046839244
000240 df 77 41 bd 4f 1f 06 3d ea f2 cb bc 79 4b 61 3d
       -0.04723346 0.032744702 -0.024896104 0.055003617
000250 1d 21 64 bc fe a0 21 3d 29 c2 31 3c 25 9c 2e bc
       -0.01392391 0.039460175 0.010849514 -0.010657345
000260 51 71 95 bd 78 df 92 3d 7d 15 60 bc 39 c8 07 3d
       -0.07297004 0.071715295 -0.013676998 0.03314993
000270 c4 f2 45 bd 14 a5 96 3d 01 5f 75 bd 71 a0 31 bd
       -0.048327222 0.07355705 -0.059905056 -0.0433659
000280 1d 5d df bb cc d6 6a 3b 75 19 00 3d 2c 55 63 3d
       -0.00681652 0.0035833595 0.031274278 0.055501148
000290 c0 59 b6 bc b4 93 82 3b 35 ff 8a bc b6 92 84 3d
       -0.022259593 0.0039848927 -0.016967395 0.064732954
0002a0 ff 62 aa 3c 03 35 56 bc a0 5b 83 3d e4 f9 de bc
       0.020799158 -0.013074162 0.064139605 -0.027218767
0002b0 44 6e b2 bc 01 11 7f 3c 65 06 99 3b d9 a8 a7 3d
       -0.021781094 0.015568019 0.0046699517 0.08186502
0002c0 81 9d 4e bd 2b 33 93 bc f4 37 53 3d 66 1d 4d 3d
       -0.050443176 -0.017968735 0.051567033 0.050076865
0002d0 e3 f6 eb 3d 1f b7 84 3c 29 1b 4f bd 35 de 08 3c
       0.11521699 0.0162006 -0.05056301 0.00835376
0002e0 36 0b 6d 3d 6f 1e 96 bd 1b 90 9e 3d 4a 08 1d bd
       0.05787202 -0.073300235 0.0774233 -0.038337983
0002f0 98 f1 1b bc c6 8b 14 3d 5d 9d a3 3d 8f da 27 bc
       -0.00951805 0.03626611 0.07988999 -0.0102449795
000300 4c 41 96 3c 7d 89 9f bc 32 5a 63 3b fb 20 56 bc
       0.018341683 -0.01947474 0.0034691212 -0.013069387
000310 df ea 69 3d be d4 60 bc 62 7c 49 3d f2 d5 74 3d
       0.057108756 -0.013722597 0.049190886 0.059774347
000320 ac 4b 07 3d 4f 40 09 bd 0a 66 9a 3c 4f de 72 3b
       0.03303115 -0.033508595 0.018847484 0.0037058776
000330 89 5e 8b bb d0 73 27 3c d9 b8 34 bc 35 da 97 bd
       -0.004253213 0.010220483 -0.011030399 -0.074146666
000340 a3 c9 2b 3d 07 4a bb 3d 70 66 51 bc d8 e9 c4 bc
       0.041940343 0.09144979 -0.012780771 -0.024037287
000350 f0 c1 e8 bc 1c c9 38 bd f8 9b 8f bd 78 07 c0 ba
       -0.02841279 -0.045113668 -0.070121706 -0.0014650663
000360 19 82 eb 3c da 10 f9 3c 5c 60 a3 3d f6 56 27 3d
       0.028748559 0.030403543 0.079773635 0.040854417
000370 f8 bd 5d 3d b2 a9 52 bc 14 fd 87 3d bb 4a 0e bc
       0.054136246 -0.012857841 0.06640068 -0.008684809
000380 95 ba 10 ba aa c8 a2 3d 95 9d 06 bd f8 60 00 3b
       -0.0005520967 0.0794843 -0.032865126 0.0019589048
000390 69 67 16 bd 7a d9 a0 3d 52 9e c9 3a 24 17 c7 3d
       -0.036719713 0.0785398 0.0015382266 0.097212106
0003a0 56 7b ae bd 69 1a a1 3d 57 87 3f bd 38 64 83 3d
       -0.08519618 0.078663655 -0.04675993 0.064155996
0003b0 32 42 a5 bc 6a f0 2b 3d 1f 9e 84 bc be bb 1f 3d
       -0.020173166 0.041977324 -0.01618868 0.038997404
0003c0 f6 c2 78 3c 06 e3 35 bc 13 d0 47 3c 69 6e a0 3d
       0.015183201 -0.01110149 0.012195605 0.07833559
0003d0 03 66 9e 3d d4 7d bf 3d ad 25 08 3c 0f cb f0 3c
       0.07734301 0.09350172 0.008309764 0.0293937
0003e0 41 e1 39 3c c6 af 67 3d 23 ef 90 bd 2c 7c 11 3d
       0.011345209 0.056564115 -0.07076862 0.03551881
0003f0 c3 f1 75 3c 89 57 b1 3c 51 15 8f bd 26 54 f5 39
       0.015011254 0.021648185 -0.06986488 0.00046792737

res3.conv1.bias f4 [32]
000000 fd 0c 23 3c 0e 9a 2c bd 7d 9f ae bb e0 95 ac bc
       0.009951827 -0.042139105 -0.005329071 -0.02106756
000010 9c f0 33 bd 90 e1 14 bd 7c 97 8c 3d 80 57 99 3c
       -0.043930635 -0.036347926 0.06864831 0.018718481
000020 b2 e3 ca 3b d2 9b bd bb 4e 1d 92 bd 64 7f 80 bd
       0.006191694 -0.0057863975 -0.07134496 -0.06274298
000030 97 b2 63 3d cf 5f 52 bc 59 56 04 bd e3 6a 48 3d
       0.05559024 -0.012840225 -0.03230891 0.04893006
000040 c1 8b 58 bd b6 bc 4f bd 0d ec 29 3c 80 86 25 bd
       -0.052867655 -0.05071708 0.01037122 -0.040411472
000050 78 e8 0b 3d 5f ca 99 bd d3 ca 40 bd a7 5e 23 3d
       0.034157246 -0.07509302 -0.04706843 0.03988519
000060 cf da 9b bc a6 d1 3e bd af 24 5c bd 7c cc 96 bc
       -0.019025235 -0.046586655 -0.05374592 -0.018408053
000070 01 77 89 3c 04 71 0f 3c 24 23 38 bd 70 3e 63 bd
       0.016780378 0.008754972 -0.044955388 -0.055479467
